{"format": "graph-model", "generatedBy": "2.15.0", "convertedBy": "TensorFlow.js Converter v4.15.0", "signature": {"inputs": {"input_1": {"name": "input_1:0", "dtype": "DT_FLOAT", "tensorShape": {"dim": [{"size": "-1"}, {"size": "7"}, {"size": "1"}]}}}, "outputs": {"dense": {"name": "Identity:0", "dtype": "DT_FLOAT", "tensorShape": {"dim": [{"size": "-1"}, {"size": "1"}]}}}}, "modelTopology": {"node": [{"name": "StatefulPartitionedCall/model/lstm_2/TensorArrayV2Stack/TensorListStack/element_shape", "op": "Const", "attr": {"value": {"tensor": {"dtype": "DT_INT32", "tensorShape": {"dim": [{"size": "2"}]}}}, "dtype": {"type": "DT_INT32"}}}, {"name": "StatefulPartitionedCall/model/lstm_2/strided_slice_3/stack", "op": "Const", "attr": {"dtype": {"type": "DT_INT32"}, "value": {"tensor": {"dtype": "DT_INT32", "tensorShape": {"dim": [{"size": "1"}]}}}}}, {"name": "StatefulPartitionedCall/model/lstm_2/strided_slice_3/stack_1", "op": "Const", "attr": {"value": {"tensor": {"dtype": "DT_INT32", "tensorShape": {"dim": [{"size": "1"}]}}}, "dtype": {"type": "DT_INT32"}}}, {"name": "StatefulPartitionedCall/model/lstm_2/strided_slice_3/stack_2", "op": "Const", "attr": {"dtype": {"type": "DT_INT32"}, "value": {"tensor": {"dtype": "DT_INT32", "tensorShape": {"dim": [{"size": "1"}]}}}}}, {"name": "StatefulPartitionedCall/model/dense/MatMul/ReadVariableOp", "op": "Const", "attr": {"value": {"tensor": {"dtype": "DT_FLOAT", "tensorShape": {"dim": [{"size": "128"}, {"size": "1"}]}}}, "dtype": {"type": "DT_FLOAT"}}}, {"name": "StatefulPartitionedCall/model/dense/BiasAdd/ReadVariableOp", "op": "Const", "attr": {"value": {"tensor": {"dtype": "DT_FLOAT", "tensorShape": {"dim": [{"size": "1"}]}}}, "dtype": {"type": "DT_FLOAT"}}}, {"name": "StatefulPartitionedCall/model/lstm_2/while/loop_counter", "op": "Const", "attr": {"value": {"tensor": {"dtype": "DT_INT32", "tensorShape": {}}}, "_has_manual_control_dependencies": {"b": true}, "dtype": {"type": "DT_INT32"}}}, {"name": "StatefulPartitionedCall/model/lstm_2/while/maximum_iterations", "op": "Const", "attr": {"_has_manual_control_dependencies": {"b": true}, "value": {"tensor": {"dtype": "DT_INT32", "tensorShape": {}}}, "dtype": {"type": "DT_INT32"}}}, {"name": "StatefulPartitionedCall/model/lstm_2/time", "op": "Const", "attr": {"value": {"tensor": {"dtype": "DT_INT32", "tensorShape": {}}}, "dtype": {"type": "DT_INT32"}, "_has_manual_control_dependencies": {"b": true}}}, {"name": "Func/StatefulPartitionedCall/input/_7", "op": "Const", "attr": {"value": {"tensor": {"dtype": "DT_FLOAT", "tensorShape": {"dim": [{"size": "64"}, {"size": "512"}]}}}, "dtype": {"type": "DT_FLOAT"}}}, {"name": "Func/StatefulPartitionedCall/input/_8", "op": "Const", "attr": {"dtype": {"type": "DT_FLOAT"}, "value": {"tensor": {"dtype": "DT_FLOAT", "tensorShape": {"dim": [{"size": "128"}, {"size": "512"}]}}}}}, {"name": "Func/StatefulPartitionedCall/input/_9", "op": "Const", "attr": {"value": {"tensor": {"dtype": "DT_FLOAT", "tensorShape": {"dim": [{"size": "512"}]}}}, "dtype": {"type": "DT_FLOAT"}}}, {"name": "StatefulPartitionedCall/model/lstm_2/strided_slice_1/stack", "op": "Const", "attr": {"value": {"tensor": {"dtype": "DT_INT32", "tensorShape": {"dim": [{"size": "1"}]}}}, "dtype": {"type": "DT_INT32"}}}, {"name": "StatefulPartitionedCall/model/lstm_2/strided_slice_1/stack_1", "op": "Const", "attr": {"dtype": {"type": "DT_INT32"}, "value": {"tensor": {"dtype": "DT_INT32", "tensorShape": {"dim": [{"size": "1"}]}}}}}, {"name": "StatefulPartitionedCall/model/lstm_2/strided_slice_1/stack_2", "op": "Const", "attr": {"value": {"tensor": {"dtype": "DT_INT32", "tensorShape": {"dim": [{"size": "1"}]}}}, "dtype": {"type": "DT_INT32"}}}, {"name": "StatefulPartitionedCall/model/lstm_2/zeros_1/packed/1", "op": "Const", "attr": {"value": {"tensor": {"dtype": "DT_INT32", "tensorShape": {}}}, "dtype": {"type": "DT_INT32"}}}, {"name": "StatefulPartitionedCall/model/lstm_2/zeros_1/Const", "op": "Const", "attr": {"dtype": {"type": "DT_FLOAT"}, "value": {"tensor": {"dtype": "DT_FLOAT", "tensorShape": {}}}}}, {"name": "StatefulPartitionedCall/model/lstm_1/transpose_1/perm", "op": "Const", "attr": {"value": {"tensor": {"dtype": "DT_INT32", "tensorShape": {"dim": [{"size": "3"}]}}}, "dtype": {"type": "DT_INT32"}}}, {"name": "StatefulPartitionedCall/model/lstm_2/strided_slice/stack", "op": "Const", "attr": {"value": {"tensor": {"dtype": "DT_INT32", "tensorShape": {"dim": [{"size": "1"}]}}}, "dtype": {"type": "DT_INT32"}}}, {"name": "StatefulPartitionedCall/model/lstm_2/strided_slice/stack_1", "op": "Const", "attr": {"dtype": {"type": "DT_INT32"}, "value": {"tensor": {"dtype": "DT_INT32", "tensorShape": {"dim": [{"size": "1"}]}}}}}, {"name": "StatefulPartitionedCall/model/lstm_2/strided_slice/stack_2", "op": "Const", "attr": {"value": {"tensor": {"dtype": "DT_INT32", "tensorShape": {"dim": [{"size": "1"}]}}}, "dtype": {"type": "DT_INT32"}}}, {"name": "StatefulPartitionedCall/model/lstm_2/zeros/packed/1", "op": "Const", "attr": {"dtype": {"type": "DT_INT32"}, "value": {"tensor": {"dtype": "DT_INT32", "tensorShape": {}}}}}, {"name": "StatefulPartitionedCall/model/lstm_2/zeros/Const", "op": "Const", "attr": {"value": {"tensor": {"dtype": "DT_FLOAT", "tensorShape": {}}}, "dtype": {"type": "DT_FLOAT"}}}, {"name": "StatefulPartitionedCall/model/lstm_1/TensorArrayV2Stack/TensorListStack/element_shape", "op": "Const", "attr": {"value": {"tensor": {"dtype": "DT_INT32", "tensorShape": {"dim": [{"size": "2"}]}}}, "dtype": {"type": "DT_INT32"}}}, {"name": "StatefulPartitionedCall/model/lstm_2/TensorArrayUnstack/TensorListFromTensor/element_shape", "op": "Const", "attr": {"dtype": {"type": "DT_INT32"}, "value": {"tensor": {"dtype": "DT_INT32", "tensorShape": {"dim": [{"size": "2"}]}}}}}, {"name": "StatefulPartitionedCall/model/lstm_2/TensorArrayV2_1/element_shape", "op": "Const", "attr": {"dtype": {"type": "DT_INT32"}, "value": {"tensor": {"dtype": "DT_INT32", "tensorShape": {"dim": [{"size": "2"}]}}}}}, {"name": "StatefulPartitionedCall/model/lstm_2/TensorArrayV2_1/num_elements", "op": "Const", "attr": {"value": {"tensor": {"dtype": "DT_INT32", "tensorShape": {}}}, "dtype": {"type": "DT_INT32"}}}, {"name": "StatefulPartitionedCall/model/lstm_1/while/loop_counter", "op": "Const", "attr": {"dtype": {"type": "DT_INT32"}, "_has_manual_control_dependencies": {"b": true}, "value": {"tensor": {"dtype": "DT_INT32", "tensorShape": {}}}}}, {"name": "StatefulPartitionedCall/model/lstm_1/while/maximum_iterations", "op": "Const", "attr": {"dtype": {"type": "DT_INT32"}, "value": {"tensor": {"dtype": "DT_INT32", "tensorShape": {}}}, "_has_manual_control_dependencies": {"b": true}}}, {"name": "StatefulPartitionedCall/model/lstm_1/time", "op": "Const", "attr": {"dtype": {"type": "DT_INT32"}, "value": {"tensor": {"dtype": "DT_INT32", "tensorShape": {}}}, "_has_manual_control_dependencies": {"b": true}}}, {"name": "Func/StatefulPartitionedCall/input/_4", "op": "Const", "attr": {"value": {"tensor": {"dtype": "DT_FLOAT", "tensorShape": {"dim": [{"size": "32"}, {"size": "256"}]}}}, "dtype": {"type": "DT_FLOAT"}}}, {"name": "Func/StatefulPartitionedCall/input/_5", "op": "Const", "attr": {"value": {"tensor": {"dtype": "DT_FLOAT", "tensorShape": {"dim": [{"size": "64"}, {"size": "256"}]}}}, "dtype": {"type": "DT_FLOAT"}}}, {"name": "Func/StatefulPartitionedCall/input/_6", "op": "Const", "attr": {"value": {"tensor": {"dtype": "DT_FLOAT", "tensorShape": {"dim": [{"size": "256"}]}}}, "dtype": {"type": "DT_FLOAT"}}}, {"name": "StatefulPartitionedCall/model/lstm_1/TensorArrayV2_1/element_shape", "op": "Const", "attr": {"dtype": {"type": "DT_INT32"}, "value": {"tensor": {"dtype": "DT_INT32", "tensorShape": {"dim": [{"size": "2"}]}}}}}, {"name": "StatefulPartitionedCall/model/lstm_1/strided_slice_1/stack", "op": "Const", "attr": {"value": {"tensor": {"dtype": "DT_INT32", "tensorShape": {"dim": [{"size": "1"}]}}}, "dtype": {"type": "DT_INT32"}}}, {"name": "StatefulPartitionedCall/model/lstm_1/strided_slice_1/stack_1", "op": "Const", "attr": {"value": {"tensor": {"dtype": "DT_INT32", "tensorShape": {"dim": [{"size": "1"}]}}}, "dtype": {"type": "DT_INT32"}}}, {"name": "StatefulPartitionedCall/model/lstm_1/strided_slice_1/stack_2", "op": "Const", "attr": {"dtype": {"type": "DT_INT32"}, "value": {"tensor": {"dtype": "DT_INT32", "tensorShape": {"dim": [{"size": "1"}]}}}}}, {"name": "StatefulPartitionedCall/model/lstm_1/zeros_1/packed/1", "op": "Const", "attr": {"value": {"tensor": {"dtype": "DT_INT32", "tensorShape": {}}}, "dtype": {"type": "DT_INT32"}}}, {"name": "StatefulPartitionedCall/model/lstm_1/zeros_1/Const", "op": "Const", "attr": {"dtype": {"type": "DT_FLOAT"}, "value": {"tensor": {"dtype": "DT_FLOAT", "tensorShape": {}}}}}, {"name": "StatefulPartitionedCall/model/lstm/transpose_1/perm", "op": "Const", "attr": {"dtype": {"type": "DT_INT32"}, "value": {"tensor": {"dtype": "DT_INT32", "tensorShape": {"dim": [{"size": "3"}]}}}}}, {"name": "StatefulPartitionedCall/model/lstm_1/strided_slice/stack", "op": "Const", "attr": {"dtype": {"type": "DT_INT32"}, "value": {"tensor": {"dtype": "DT_INT32", "tensorShape": {"dim": [{"size": "1"}]}}}}}, {"name": "StatefulPartitionedCall/model/lstm_1/strided_slice/stack_1", "op": "Const", "attr": {"value": {"tensor": {"dtype": "DT_INT32", "tensorShape": {"dim": [{"size": "1"}]}}}, "dtype": {"type": "DT_INT32"}}}, {"name": "StatefulPartitionedCall/model/lstm_1/strided_slice/stack_2", "op": "Const", "attr": {"dtype": {"type": "DT_INT32"}, "value": {"tensor": {"dtype": "DT_INT32", "tensorShape": {"dim": [{"size": "1"}]}}}}}, {"name": "StatefulPartitionedCall/model/lstm_1/zeros/packed/1", "op": "Const", "attr": {"dtype": {"type": "DT_INT32"}, "value": {"tensor": {"dtype": "DT_INT32", "tensorShape": {}}}}}, {"name": "StatefulPartitionedCall/model/lstm_1/zeros/Const", "op": "Const", "attr": {"dtype": {"type": "DT_FLOAT"}, "value": {"tensor": {"dtype": "DT_FLOAT", "tensorShape": {}}}}}, {"name": "StatefulPartitionedCall/model/lstm/while/loop_counter", "op": "Const", "attr": {"value": {"tensor": {"dtype": "DT_INT32", "tensorShape": {}}}, "dtype": {"type": "DT_INT32"}, "_has_manual_control_dependencies": {"b": true}}}, {"name": "StatefulPartitionedCall/model/lstm/while/maximum_iterations", "op": "Const", "attr": {"_has_manual_control_dependencies": {"b": true}, "value": {"tensor": {"dtype": "DT_INT32", "tensorShape": {}}}, "dtype": {"type": "DT_INT32"}}}, {"name": "StatefulPartitionedCall/model/lstm/time", "op": "Const", "attr": {"dtype": {"type": "DT_INT32"}, "_has_manual_control_dependencies": {"b": true}, "value": {"tensor": {"dtype": "DT_INT32", "tensorShape": {}}}}}, {"name": "Func/StatefulPartitionedCall/input/_1", "op": "Const", "attr": {"value": {"tensor": {"dtype": "DT_FLOAT", "tensorShape": {"dim": [{"size": "1"}, {"size": "128"}]}}}, "dtype": {"type": "DT_FLOAT"}}}, {"name": "Func/StatefulPartitionedCall/input/_2", "op": "Const", "attr": {"value": {"tensor": {"dtype": "DT_FLOAT", "tensorShape": {"dim": [{"size": "32"}, {"size": "128"}]}}}, "dtype": {"type": "DT_FLOAT"}}}, {"name": "Func/StatefulPartitionedCall/input/_3", "op": "Const", "attr": {"value": {"tensor": {"dtype": "DT_FLOAT", "tensorShape": {"dim": [{"size": "128"}]}}}, "dtype": {"type": "DT_FLOAT"}}}, {"name": "StatefulPartitionedCall/model/lstm/TensorArrayV2_1/element_shape", "op": "Const", "attr": {"value": {"tensor": {"dtype": "DT_INT32", "tensorShape": {"dim": [{"size": "2"}]}}}, "dtype": {"type": "DT_INT32"}}}, {"name": "StatefulPartitionedCall/model/lstm/strided_slice_1/stack", "op": "Const", "attr": {"dtype": {"type": "DT_INT32"}, "value": {"tensor": {"dtype": "DT_INT32", "tensorShape": {"dim": [{"size": "1"}]}}}}}, {"name": "StatefulPartitionedCall/model/lstm/strided_slice_1/stack_1", "op": "Const", "attr": {"dtype": {"type": "DT_INT32"}, "value": {"tensor": {"dtype": "DT_INT32", "tensorShape": {"dim": [{"size": "1"}]}}}}}, {"name": "StatefulPartitionedCall/model/lstm/strided_slice_1/stack_2", "op": "Const", "attr": {"value": {"tensor": {"dtype": "DT_INT32", "tensorShape": {"dim": [{"size": "1"}]}}}, "dtype": {"type": "DT_INT32"}}}, {"name": "StatefulPartitionedCall/model/lstm/zeros_1/packed/1", "op": "Const", "attr": {"value": {"tensor": {"dtype": "DT_INT32", "tensorShape": {}}}, "dtype": {"type": "DT_INT32"}}}, {"name": "StatefulPartitionedCall/model/lstm/zeros_1/Const", "op": "Const", "attr": {"dtype": {"type": "DT_FLOAT"}, "value": {"tensor": {"dtype": "DT_FLOAT", "tensorShape": {}}}}}, {"name": "StatefulPartitionedCall/model/lstm/strided_slice/stack", "op": "Const", "attr": {"dtype": {"type": "DT_INT32"}, "value": {"tensor": {"dtype": "DT_INT32", "tensorShape": {"dim": [{"size": "1"}]}}}}}, {"name": "StatefulPartitionedCall/model/lstm/strided_slice/stack_1", "op": "Const", "attr": {"dtype": {"type": "DT_INT32"}, "value": {"tensor": {"dtype": "DT_INT32", "tensorShape": {"dim": [{"size": "1"}]}}}}}, {"name": "StatefulPartitionedCall/model/lstm/strided_slice/stack_2", "op": "Const", "attr": {"value": {"tensor": {"dtype": "DT_INT32", "tensorShape": {"dim": [{"size": "1"}]}}}, "dtype": {"type": "DT_INT32"}}}, {"name": "StatefulPartitionedCall/model/lstm/zeros/packed/1", "op": "Const", "attr": {"value": {"tensor": {"dtype": "DT_INT32", "tensorShape": {}}}, "dtype": {"type": "DT_INT32"}}}, {"name": "StatefulPartitionedCall/model/lstm/zeros/Const", "op": "Const", "attr": {"value": {"tensor": {"dtype": "DT_FLOAT", "tensorShape": {}}}, "dtype": {"type": "DT_FLOAT"}}}, {"name": "StatefulPartitionedCall/model/lstm/transpose/perm", "op": "Const", "attr": {"dtype": {"type": "DT_INT32"}, "value": {"tensor": {"dtype": "DT_INT32", "tensorShape": {"dim": [{"size": "3"}]}}}}}, {"name": "StatefulPartitionedCall/model/lstm/TensorArrayUnstack/TensorListFromTensor/element_shape", "op": "Const", "attr": {"dtype": {"type": "DT_INT32"}, "value": {"tensor": {"dtype": "DT_INT32", "tensorShape": {"dim": [{"size": "2"}]}}}}}, {"name": "StatefulPartitionedCall/model/lstm/TensorArrayV2Stack/TensorListStack/element_shape", "op": "Const", "attr": {"dtype": {"type": "DT_INT32"}, "value": {"tensor": {"dtype": "DT_INT32", "tensorShape": {"dim": [{"size": "2"}]}}}}}, {"name": "StatefulPartitionedCall/model/lstm_1/TensorArrayUnstack/TensorListFromTensor/element_shape", "op": "Const", "attr": {"dtype": {"type": "DT_INT32"}, "value": {"tensor": {"dtype": "DT_INT32", "tensorShape": {"dim": [{"size": "2"}]}}}}}, {"name": "input_1", "op": "Placeholder", "attr": {"dtype": {"type": "DT_FLOAT"}, "shape": {"shape": {"dim": [{"size": "-1"}, {"size": "7"}, {"size": "1"}]}}}}, {"name": "StatefulPartitionedCall/model/lstm_2/TensorArrayV2_1", "op": "TensorListReserve", "input": ["StatefulPartitionedCall/model/lstm_2/TensorArrayV2_1/element_shape", "StatefulPartitionedCall/model/lstm_2/TensorArrayV2_1/num_elements"], "attr": {"element_dtype": {"type": "DT_FLOAT"}, "_has_manual_control_dependencies": {"b": true}, "shape_type": {"type": "DT_INT32"}}, "experimentalType": {"typeId": "TFT_PRODUCT", "args": [{"typeId": "TFT_ARRAY", "args": [{"typeId": "TFT_TENSOR", "args": [{"typeId": "TFT_FLOAT"}]}]}]}}, {"name": "StatefulPartitionedCall/model/lstm/Shape", "op": "Shape", "input": ["input_1"], "attr": {"out_type": {"type": "DT_INT32"}, "T": {"type": "DT_FLOAT"}}, "experimentalType": {"typeId": "TFT_PRODUCT", "args": [{"typeId": "TFT_SHAPE_TENSOR", "args": [{"typeId": "TFT_INT32"}]}]}}, {"name": "StatefulPartitionedCall/model/lstm/transpose", "op": "Transpose", "input": ["input_1", "StatefulPartitionedCall/model/lstm/transpose/perm"], "attr": {"T": {"type": "DT_FLOAT"}, "Tperm": {"type": "DT_INT32"}}}, {"name": "StatefulPartitionedCall/model/lstm/strided_slice", "op": "StridedSlice", "input": ["StatefulPartitionedCall/model/lstm/Shape", "StatefulPartitionedCall/model/lstm/strided_slice/stack", "StatefulPartitionedCall/model/lstm/strided_slice/stack_1", "StatefulPartitionedCall/model/lstm/strided_slice/stack_2"], "attr": {"shrink_axis_mask": {"i": "1"}, "T": {"type": "DT_INT32"}, "ellipsis_mask": {"i": "0"}, "end_mask": {"i": "0"}, "Index": {"type": "DT_INT32"}, "new_axis_mask": {"i": "0"}, "begin_mask": {"i": "0"}}}, {"name": "StatefulPartitionedCall/model/lstm/Shape_1", "op": "Shape", "input": ["StatefulPartitionedCall/model/lstm/transpose"], "attr": {"T": {"type": "DT_FLOAT"}, "out_type": {"type": "DT_INT32"}}, "experimentalType": {"typeId": "TFT_PRODUCT", "args": [{"typeId": "TFT_SHAPE_TENSOR", "args": [{"typeId": "TFT_INT32"}]}]}}, {"name": "StatefulPartitionedCall/model/lstm/TensorArrayUnstack/TensorListFromTensor", "op": "TensorListFromTensor", "input": ["StatefulPartitionedCall/model/lstm/transpose", "StatefulPartitionedCall/model/lstm/TensorArrayUnstack/TensorListFromTensor/element_shape"], "attr": {"element_dtype": {"type": "DT_FLOAT"}, "shape_type": {"type": "DT_INT32"}}, "experimentalType": {"typeId": "TFT_PRODUCT", "args": [{"typeId": "TFT_ARRAY", "args": [{"typeId": "TFT_TENSOR", "args": [{"typeId": "TFT_FLOAT"}]}]}]}}, {"name": "StatefulPartitionedCall/model/lstm/zeros_1/packed", "op": "Pack", "input": ["StatefulPartitionedCall/model/lstm/strided_slice", "StatefulPartitionedCall/model/lstm/zeros_1/packed/1"], "attr": {"N": {"i": "2"}, "axis": {"i": "0"}, "T": {"type": "DT_INT32"}}}, {"name": "StatefulPartitionedCall/model/lstm/zeros/packed", "op": "Pack", "input": ["StatefulPartitionedCall/model/lstm/strided_slice", "StatefulPartitionedCall/model/lstm/zeros/packed/1"], "attr": {"N": {"i": "2"}, "axis": {"i": "0"}, "T": {"type": "DT_INT32"}}}, {"name": "StatefulPartitionedCall/model/lstm/strided_slice_1", "op": "StridedSlice", "input": ["StatefulPartitionedCall/model/lstm/Shape_1", "StatefulPartitionedCall/model/lstm/strided_slice_1/stack", "StatefulPartitionedCall/model/lstm/strided_slice_1/stack_1", "StatefulPartitionedCall/model/lstm/strided_slice_1/stack_2"], "attr": {"new_axis_mask": {"i": "0"}, "ellipsis_mask": {"i": "0"}, "begin_mask": {"i": "0"}, "shrink_axis_mask": {"i": "1"}, "T": {"type": "DT_INT32"}, "Index": {"type": "DT_INT32"}, "end_mask": {"i": "0"}}}, {"name": "StatefulPartitionedCall/model/lstm/zeros_1", "op": "Fill", "input": ["StatefulPartitionedCall/model/lstm/zeros_1/packed", "StatefulPartitionedCall/model/lstm/zeros_1/Const"], "attr": {"index_type": {"type": "DT_INT32"}, "T": {"type": "DT_FLOAT"}}}, {"name": "StatefulPartitionedCall/model/lstm/zeros", "op": "Fill", "input": ["StatefulPartitionedCall/model/lstm/zeros/packed", "StatefulPartitionedCall/model/lstm/zeros/Const"], "attr": {"T": {"type": "DT_FLOAT"}, "index_type": {"type": "DT_INT32"}}}, {"name": "StatefulPartitionedCall/model/lstm/TensorArrayV2_1", "op": "TensorListReserve", "input": ["StatefulPartitionedCall/model/lstm/TensorArrayV2_1/element_shape", "StatefulPartitionedCall/model/lstm/strided_slice_1"], "attr": {"element_dtype": {"type": "DT_FLOAT"}, "shape_type": {"type": "DT_INT32"}}, "experimentalType": {"typeId": "TFT_PRODUCT", "args": [{"typeId": "TFT_ARRAY", "args": [{"typeId": "TFT_TENSOR", "args": [{"typeId": "TFT_FLOAT"}]}]}]}}, {"name": "StatefulPartitionedCall/model/lstm/while/LoopControlInputs/_27", "op": "NoOp", "input": ["^StatefulPartitionedCall/model/lstm/TensorArrayV2_1", "^StatefulPartitionedCall/model/lstm/zeros_1", "^StatefulPartitionedCall/model/lstm/zeros", "^StatefulPartitionedCall/model/lstm/TensorArrayUnstack/TensorListFromTensor"], "attr": {"_has_manual_control_dependencies": {"b": true}}}, {"name": "StatefulPartitionedCall/model/lstm/while/enter/_19", "op": "Enter", "input": ["StatefulPartitionedCall/model/lstm/TensorArrayV2_1", "^StatefulPartitionedCall/model/lstm/while/LoopControlInputs/_27"], "attr": {"T": {"type": "DT_VARIANT"}, "is_constant": {"b": false}, "parallel_iterations": {"i": "32"}, "frame_name": {"s": "U3RhdGVmdWxQYXJ0aXRpb25lZENhbGwvbW9kZWwvbHN0bS93aGlsZQ=="}}}, {"name": "StatefulPartitionedCall/model/lstm/while/enter/_21", "op": "Enter", "input": ["StatefulPartitionedCall/model/lstm/zeros_1", "^StatefulPartitionedCall/model/lstm/while/LoopControlInputs/_27"], "attr": {"parallel_iterations": {"i": "32"}, "T": {"type": "DT_FLOAT"}, "frame_name": {"s": "U3RhdGVmdWxQYXJ0aXRpb25lZENhbGwvbW9kZWwvbHN0bS93aGlsZQ=="}, "is_constant": {"b": false}}}, {"name": "StatefulPartitionedCall/model/lstm/while/enter/_22", "op": "Enter", "input": ["StatefulPartitionedCall/model/lstm/strided_slice_1", "^StatefulPartitionedCall/model/lstm/while/LoopControlInputs/_27"], "attr": {"T": {"type": "DT_INT32"}, "parallel_iterations": {"i": "32"}, "is_constant": {"b": false}, "frame_name": {"s": "U3RhdGVmdWxQYXJ0aXRpb25lZENhbGwvbW9kZWwvbHN0bS93aGlsZQ=="}}}, {"name": "StatefulPartitionedCall/model/lstm/while/enter/_16", "op": "Enter", "input": ["StatefulPartitionedCall/model/lstm/while/loop_counter", "^StatefulPartitionedCall/model/lstm/while/LoopControlInputs/_27"], "attr": {"is_constant": {"b": false}, "T": {"type": "DT_INT32"}, "parallel_iterations": {"i": "32"}, "frame_name": {"s": "U3RhdGVmdWxQYXJ0aXRpb25lZENhbGwvbW9kZWwvbHN0bS93aGlsZQ=="}}}, {"name": "StatefulPartitionedCall/model/lstm/while/enter/_17", "op": "Enter", "input": ["StatefulPartitionedCall/model/lstm/while/maximum_iterations", "^StatefulPartitionedCall/model/lstm/while/LoopControlInputs/_27"], "attr": {"frame_name": {"s": "U3RhdGVmdWxQYXJ0aXRpb25lZENhbGwvbW9kZWwvbHN0bS93aGlsZQ=="}, "T": {"type": "DT_INT32"}, "is_constant": {"b": false}, "parallel_iterations": {"i": "32"}}}, {"name": "StatefulPartitionedCall/model/lstm/while/enter/_20", "op": "Enter", "input": ["StatefulPartitionedCall/model/lstm/zeros", "^StatefulPartitionedCall/model/lstm/while/LoopControlInputs/_27"], "attr": {"is_constant": {"b": false}, "parallel_iterations": {"i": "32"}, "T": {"type": "DT_FLOAT"}, "frame_name": {"s": "U3RhdGVmdWxQYXJ0aXRpb25lZENhbGwvbW9kZWwvbHN0bS93aGlsZQ=="}}}, {"name": "StatefulPartitionedCall/model/lstm/while/enter/_23", "op": "Enter", "input": ["StatefulPartitionedCall/model/lstm/TensorArrayUnstack/TensorListFromTensor", "^StatefulPartitionedCall/model/lstm/while/LoopControlInputs/_27"], "attr": {"T": {"type": "DT_VARIANT"}, "parallel_iterations": {"i": "32"}, "is_constant": {"b": false}, "frame_name": {"s": "U3RhdGVmdWxQYXJ0aXRpb25lZENhbGwvbW9kZWwvbHN0bS93aGlsZQ=="}}}, {"name": "StatefulPartitionedCall/model/lstm/while/enter/_18", "op": "Enter", "input": ["StatefulPartitionedCall/model/lstm/time", "^StatefulPartitionedCall/model/lstm/while/LoopControlInputs/_27"], "attr": {"is_constant": {"b": false}, "T": {"type": "DT_INT32"}, "frame_name": {"s": "U3RhdGVmdWxQYXJ0aXRpb25lZENhbGwvbW9kZWwvbHN0bS93aGlsZQ=="}, "parallel_iterations": {"i": "32"}}}, {"name": "StatefulPartitionedCall/model/lstm/while/enter/_24", "op": "Enter", "input": ["Func/StatefulPartitionedCall/input/_1", "^StatefulPartitionedCall/model/lstm/while/LoopControlInputs/_27"], "attr": {"is_constant": {"b": true}, "parallel_iterations": {"i": "32"}, "frame_name": {"s": "U3RhdGVmdWxQYXJ0aXRpb25lZENhbGwvbW9kZWwvbHN0bS93aGlsZQ=="}, "T": {"type": "DT_FLOAT"}}}, {"name": "StatefulPartitionedCall/model/lstm/while/enter/_25", "op": "Enter", "input": ["Func/StatefulPartitionedCall/input/_2", "^StatefulPartitionedCall/model/lstm/while/LoopControlInputs/_27"], "attr": {"T": {"type": "DT_FLOAT"}, "is_constant": {"b": true}, "_has_manual_control_dependencies": {"b": true}, "parallel_iterations": {"i": "32"}, "frame_name": {"s": "U3RhdGVmdWxQYXJ0aXRpb25lZENhbGwvbW9kZWwvbHN0bS93aGlsZQ=="}}}, {"name": "StatefulPartitionedCall/model/lstm/while/enter/_26", "op": "Enter", "input": ["Func/StatefulPartitionedCall/input/_3", "^StatefulPartitionedCall/model/lstm/while/LoopControlInputs/_27"], "attr": {"is_constant": {"b": true}, "parallel_iterations": {"i": "32"}, "T": {"type": "DT_FLOAT"}, "frame_name": {"s": "U3RhdGVmdWxQYXJ0aXRpb25lZENhbGwvbW9kZWwvbHN0bS93aGlsZQ=="}}}, {"name": "StatefulPartitionedCall/model/lstm/while/merge/_31", "op": "Merge", "input": ["StatefulPartitionedCall/model/lstm/while/enter/_19", "StatefulPartitionedCall/model/lstm/while/next_iteration/_58"], "attr": {"N": {"i": "2"}, "T": {"type": "DT_VARIANT"}}}, {"name": "StatefulPartitionedCall/model/lstm/while/merge/_33", "op": "Merge", "input": ["StatefulPartitionedCall/model/lstm/while/enter/_21", "StatefulPartitionedCall/model/lstm/while/next_iteration/_60"], "attr": {"T": {"type": "DT_FLOAT"}, "N": {"i": "2"}}}, {"name": "StatefulPartitionedCall/model/lstm/while/merge/_34", "op": "Merge", "input": ["StatefulPartitionedCall/model/lstm/while/enter/_22", "StatefulPartitionedCall/model/lstm/while/next_iteration/_61"], "attr": {"N": {"i": "2"}, "T": {"type": "DT_INT32"}}}, {"name": "StatefulPartitionedCall/model/lstm/while/merge/_28", "op": "Merge", "input": ["StatefulPartitionedCall/model/lstm/while/enter/_16", "StatefulPartitionedCall/model/lstm/while/next_iteration/_55"], "attr": {"N": {"i": "2"}, "_has_manual_control_dependencies": {"b": true}, "T": {"type": "DT_INT32"}}}, {"name": "StatefulPartitionedCall/model/lstm/while/merge/_29", "op": "Merge", "input": ["StatefulPartitionedCall/model/lstm/while/enter/_17", "StatefulPartitionedCall/model/lstm/while/next_iteration/_56"], "attr": {"_has_manual_control_dependencies": {"b": true}, "T": {"type": "DT_INT32"}, "N": {"i": "2"}}}, {"name": "StatefulPartitionedCall/model/lstm/while/merge/_32", "op": "Merge", "input": ["StatefulPartitionedCall/model/lstm/while/enter/_20", "StatefulPartitionedCall/model/lstm/while/next_iteration/_59"], "attr": {"N": {"i": "2"}, "T": {"type": "DT_FLOAT"}}}, {"name": "StatefulPartitionedCall/model/lstm/while/merge/_35", "op": "Merge", "input": ["StatefulPartitionedCall/model/lstm/while/enter/_23", "StatefulPartitionedCall/model/lstm/while/next_iteration/_62"], "attr": {"N": {"i": "2"}, "T": {"type": "DT_VARIANT"}}}, {"name": "StatefulPartitionedCall/model/lstm/while/merge/_30", "op": "Merge", "input": ["StatefulPartitionedCall/model/lstm/while/enter/_18", "StatefulPartitionedCall/model/lstm/while/next_iteration/_57"], "attr": {"T": {"type": "DT_INT32"}, "N": {"i": "2"}}}, {"name": "StatefulPartitionedCall/model/lstm/while/cond/_14/model/lstm/while/Less", "op": "Less", "input": ["StatefulPartitionedCall/model/lstm/while/merge/_30", "StatefulPartitionedCall/model/lstm/while/merge/_34", "^StatefulPartitionedCall/model/lstm/while/merge/_35", "^StatefulPartitionedCall/model/lstm/while/enter/_24", "^StatefulPartitionedCall/model/lstm/while/enter/_25", "^StatefulPartitionedCall/model/lstm/while/enter/_26", "^StatefulPartitionedCall/model/lstm/while/merge/_28", "^StatefulPartitionedCall/model/lstm/while/merge/_29", "^StatefulPartitionedCall/model/lstm/while/merge/_31", "^StatefulPartitionedCall/model/lstm/while/merge/_32", "^StatefulPartitionedCall/model/lstm/while/merge/_33"], "attr": {"T": {"type": "DT_INT32"}}}, {"name": "StatefulPartitionedCall/model/lstm/while/LoopCond/_36", "op": "LoopCond", "input": ["StatefulPartitionedCall/model/lstm/while/cond/_14/model/lstm/while/Less"]}, {"name": "StatefulPartitionedCall/model/lstm/while/StatefulPartitionedCall/model/lstm/strided_slice_1_switch/_43", "op": "Switch", "input": ["StatefulPartitionedCall/model/lstm/while/merge/_34", "StatefulPartitionedCall/model/lstm/while/LoopCond/_36"], "attr": {"T": {"type": "DT_INT32"}}}, {"name": "StatefulPartitionedCall/model/lstm/while/StatefulPartitionedCall/model/lstm/while/loop_counter_switch/_37", "op": "Switch", "input": ["StatefulPartitionedCall/model/lstm/while/merge/_28", "StatefulPartitionedCall/model/lstm/while/LoopCond/_36"], "attr": {"T": {"type": "DT_INT32"}}}, {"name": "StatefulPartitionedCall/model/lstm/while/StatefulPartitionedCall/model/lstm/while/maximum_iterations_switch/_38", "op": "Switch", "input": ["StatefulPartitionedCall/model/lstm/while/merge/_29", "StatefulPartitionedCall/model/lstm/while/LoopCond/_36"], "attr": {"T": {"type": "DT_INT32"}, "_has_manual_control_dependencies": {"b": true}}}, {"name": "StatefulPartitionedCall/model/lstm/while/StatefulPartitionedCall/model/lstm/zeros_1_switch/_42", "op": "Switch", "input": ["StatefulPartitionedCall/model/lstm/while/merge/_33", "StatefulPartitionedCall/model/lstm/while/LoopCond/_36"], "attr": {"T": {"type": "DT_FLOAT"}}}, {"name": "StatefulPartitionedCall/model/lstm/while/StatefulPartitionedCall/model/lstm/TensorArrayUnstack/TensorListFromTensor_switch/_44", "op": "Switch", "input": ["StatefulPartitionedCall/model/lstm/while/merge/_35", "StatefulPartitionedCall/model/lstm/while/LoopCond/_36"], "attr": {"T": {"type": "DT_VARIANT"}}}, {"name": "StatefulPartitionedCall/model/lstm/while/StatefulPartitionedCall/model/lstm/time_switch/_39", "op": "Switch", "input": ["StatefulPartitionedCall/model/lstm/while/merge/_30", "StatefulPartitionedCall/model/lstm/while/LoopCond/_36"], "attr": {"T": {"type": "DT_INT32"}}}, {"name": "StatefulPartitionedCall/model/lstm/while/StatefulPartitionedCall/model/lstm/zeros_switch/_41", "op": "Switch", "input": ["StatefulPartitionedCall/model/lstm/while/merge/_32", "StatefulPartitionedCall/model/lstm/while/LoopCond/_36"], "attr": {"T": {"type": "DT_FLOAT"}}}, {"name": "StatefulPartitionedCall/model/lstm/while/StatefulPartitionedCall/model/lstm/TensorArrayV2_1_switch/_40", "op": "Switch", "input": ["StatefulPartitionedCall/model/lstm/while/merge/_31", "StatefulPartitionedCall/model/lstm/while/LoopCond/_36"], "attr": {"T": {"type": "DT_VARIANT"}}}, {"name": "StatefulPartitionedCall/model/lstm/while/exit/_52", "op": "Exit", "input": ["StatefulPartitionedCall/model/lstm/while/StatefulPartitionedCall/model/lstm/strided_slice_1_switch/_43"], "attr": {"T": {"type": "DT_INT32"}, "_has_manual_control_dependencies": {"b": true}}}, {"name": "StatefulPartitionedCall/model/lstm/while/exit/_46", "op": "Exit", "input": ["StatefulPartitionedCall/model/lstm/while/StatefulPartitionedCall/model/lstm/while/loop_counter_switch/_37"], "attr": {"_has_manual_control_dependencies": {"b": true}, "T": {"type": "DT_INT32"}}}, {"name": "StatefulPartitionedCall/model/lstm/while/loop_body_control/_45", "op": "Identity", "input": ["StatefulPartitionedCall/model/lstm/while/StatefulPartitionedCall/model/lstm/while/loop_counter_switch/_37:1"], "attr": {"T": {"type": "DT_INT32"}, "_has_manual_control_dependencies": {"b": true}}}, {"name": "StatefulPartitionedCall/model/lstm/while/exit/_47", "op": "Exit", "input": ["StatefulPartitionedCall/model/lstm/while/StatefulPartitionedCall/model/lstm/while/maximum_iterations_switch/_38"], "attr": {"_has_manual_control_dependencies": {"b": true}, "T": {"type": "DT_INT32"}}}, {"name": "StatefulPartitionedCall/model/lstm/while/exit/_51", "op": "Exit", "input": ["StatefulPartitionedCall/model/lstm/while/StatefulPartitionedCall/model/lstm/zeros_1_switch/_42"], "attr": {"T": {"type": "DT_FLOAT"}, "_has_manual_control_dependencies": {"b": true}}}, {"name": "StatefulPartitionedCall/model/lstm/while/exit/_53", "op": "Exit", "input": ["StatefulPartitionedCall/model/lstm/while/StatefulPartitionedCall/model/lstm/TensorArrayUnstack/TensorListFromTensor_switch/_44"], "attr": {"_has_manual_control_dependencies": {"b": true}, "T": {"type": "DT_VARIANT"}}}, {"name": "StatefulPartitionedCall/model/lstm/while/exit/_48", "op": "Exit", "input": ["StatefulPartitionedCall/model/lstm/while/StatefulPartitionedCall/model/lstm/time_switch/_39"], "attr": {"T": {"type": "DT_INT32"}, "_has_manual_control_dependencies": {"b": true}}}, {"name": "StatefulPartitionedCall/model/lstm/while/exit/_50", "op": "Exit", "input": ["StatefulPartitionedCall/model/lstm/while/StatefulPartitionedCall/model/lstm/zeros_switch/_41"], "attr": {"T": {"type": "DT_FLOAT"}, "_has_manual_control_dependencies": {"b": true}}}, {"name": "StatefulPartitionedCall/model/lstm/while/exit/_49", "op": "Exit", "input": ["StatefulPartitionedCall/model/lstm/while/StatefulPartitionedCall/model/lstm/TensorArrayV2_1_switch/_40"], "attr": {"_has_manual_control_dependencies": {"b": true}, "T": {"type": "DT_VARIANT"}}}, {"name": "Func/StatefulPartitionedCall/model/lstm/while/body/_15/input_control_node/_174", "op": "NoOp", "input": ["^StatefulPartitionedCall/model/lstm/while/StatefulPartitionedCall/model/lstm/TensorArrayUnstack/TensorListFromTensor_switch/_44", "^StatefulPartitionedCall/model/lstm/while/StatefulPartitionedCall/model/lstm/TensorArrayV2_1_switch/_40", "^StatefulPartitionedCall/model/lstm/while/StatefulPartitionedCall/model/lstm/strided_slice_1_switch/_43", "^StatefulPartitionedCall/model/lstm/while/StatefulPartitionedCall/model/lstm/time_switch/_39", "^StatefulPartitionedCall/model/lstm/while/loop_body_control/_45", "^StatefulPartitionedCall/model/lstm/while/StatefulPartitionedCall/model/lstm/while/maximum_iterations_switch/_38", "^StatefulPartitionedCall/model/lstm/while/StatefulPartitionedCall/model/lstm/zeros_1_switch/_42", "^StatefulPartitionedCall/model/lstm/while/StatefulPartitionedCall/model/lstm/zeros_switch/_41", "^StatefulPartitionedCall/model/lstm/while/enter/_24", "^StatefulPartitionedCall/model/lstm/while/enter/_25", "^StatefulPartitionedCall/model/lstm/while/enter/_26"], "attr": {"_has_manual_control_dependencies": {"b": true}}}, {"name": "StatefulPartitionedCall/model/lstm/TensorArrayV2Stack/TensorListStack", "op": "TensorListStack", "input": ["StatefulPartitionedCall/model/lstm/while/exit/_49", "StatefulPartitionedCall/model/lstm/TensorArrayV2Stack/TensorListStack/element_shape"], "attr": {"element_dtype": {"type": "DT_FLOAT"}, "num_elements": {"i": "-1"}}}, {"name": "StatefulPartitionedCall/model/lstm/while/body/_15/model/lstm/while/add_1/y", "op": "Const", "input": ["^Func/StatefulPartitionedCall/model/lstm/while/body/_15/input_control_node/_174"], "attr": {"value": {"tensor": {"dtype": "DT_INT32", "tensorShape": {}}}, "dtype": {"type": "DT_INT32"}}}, {"name": "StatefulPartitionedCall/model/lstm/while/body/_15/model/lstm/while/lstm_cell/split/split_dim", "op": "Const", "input": ["^Func/StatefulPartitionedCall/model/lstm/while/body/_15/input_control_node/_174"], "attr": {"value": {"tensor": {"dtype": "DT_INT32", "tensorShape": {}}}, "dtype": {"type": "DT_INT32"}}}, {"name": "StatefulPartitionedCall/model/lstm/while/body/_15/model/lstm/while/add/y", "op": "Const", "input": ["^Func/StatefulPartitionedCall/model/lstm/while/body/_15/input_control_node/_174"], "attr": {"dtype": {"type": "DT_INT32"}, "value": {"tensor": {"dtype": "DT_INT32", "tensorShape": {}}}}}, {"name": "Func/StatefulPartitionedCall/model/lstm/while/body/_15/input/_177", "op": "Identity", "input": ["StatefulPartitionedCall/model/lstm/while/StatefulPartitionedCall/model/lstm/time_switch/_39:1", "^Func/StatefulPartitionedCall/model/lstm/while/body/_15/input_control_node/_174"], "attr": {"T": {"type": "DT_INT32"}}}, {"name": "StatefulPartitionedCall/model/lstm/while/body/_15/model/lstm/while/TensorArrayV2Read/TensorListGetItem/element_shape", "op": "Const", "input": ["^Func/StatefulPartitionedCall/model/lstm/while/body/_15/input_control_node/_174"], "attr": {"dtype": {"type": "DT_INT32"}, "value": {"tensor": {"dtype": "DT_INT32", "tensorShape": {"dim": [{"size": "2"}]}}}}}, {"name": "StatefulPartitionedCall/model/lstm/while/body/_15/model/lstm/while/lstm_cell/MatMul/ReadVariableOp", "op": "Const", "input": ["^StatefulPartitionedCall/model/lstm/while/enter/_24", "^Func/StatefulPartitionedCall/model/lstm/while/body/_15/input_control_node/_174"], "attr": {"value": {"tensor": {"dtype": "DT_FLOAT", "tensorShape": {"dim": [{"size": "1"}, {"size": "128"}]}}}, "dtype": {"type": "DT_FLOAT"}}}, {"name": "StatefulPartitionedCall/model/lstm/while/body/_15/model/lstm/while/lstm_cell/MatMul_1/ReadVariableOp", "op": "Const", "input": ["^StatefulPartitionedCall/model/lstm/while/enter/_25", "^Func/StatefulPartitionedCall/model/lstm/while/body/_15/input_control_node/_174"], "attr": {"dtype": {"type": "DT_FLOAT"}, "value": {"tensor": {"dtype": "DT_FLOAT", "tensorShape": {"dim": [{"size": "32"}, {"size": "128"}]}}}}}, {"name": "StatefulPartitionedCall/model/lstm/while/body/_15/model/lstm/while/lstm_cell/BiasAdd/ReadVariableOp", "op": "Const", "input": ["^StatefulPartitionedCall/model/lstm/while/enter/_26", "^Func/StatefulPartitionedCall/model/lstm/while/body/_15/input_control_node/_174"], "attr": {"dtype": {"type": "DT_FLOAT"}, "value": {"tensor": {"dtype": "DT_FLOAT", "tensorShape": {"dim": [{"size": "128"}]}}}}}, {"name": "StatefulPartitionedCall/model/lstm_1/Shape_1", "op": "Shape", "input": ["StatefulPartitionedCall/model/lstm/TensorArrayV2Stack/TensorListStack"], "attr": {"out_type": {"type": "DT_INT32"}, "T": {"type": "DT_FLOAT"}}, "experimentalType": {"typeId": "TFT_PRODUCT", "args": [{"typeId": "TFT_SHAPE_TENSOR", "args": [{"typeId": "TFT_INT32"}]}]}}, {"name": "StatefulPartitionedCall/model/lstm/transpose_1", "op": "Transpose", "input": ["StatefulPartitionedCall/model/lstm/TensorArrayV2Stack/TensorListStack", "StatefulPartitionedCall/model/lstm/transpose_1/perm"], "attr": {"Tperm": {"type": "DT_INT32"}, "T": {"type": "DT_FLOAT"}}}, {"name": "StatefulPartitionedCall/model/lstm_1/TensorArrayUnstack/TensorListFromTensor", "op": "TensorListFromTensor", "input": ["StatefulPartitionedCall/model/lstm/TensorArrayV2Stack/TensorListStack", "StatefulPartitionedCall/model/lstm_1/TensorArrayUnstack/TensorListFromTensor/element_shape"], "attr": {"element_dtype": {"type": "DT_FLOAT"}, "shape_type": {"type": "DT_INT32"}, "_has_manual_control_dependencies": {"b": true}}, "experimentalType": {"typeId": "TFT_PRODUCT", "args": [{"typeId": "TFT_ARRAY", "args": [{"typeId": "TFT_TENSOR", "args": [{"typeId": "TFT_FLOAT"}]}]}]}}, {"name": "StatefulPartitionedCall/model/lstm/while/body/_15/model/lstm/while/add_1", "op": "AddV2", "input": ["StatefulPartitionedCall/model/lstm/while/StatefulPartitionedCall/model/lstm/while/loop_counter_switch/_37:1", "StatefulPartitionedCall/model/lstm/while/body/_15/model/lstm/while/add_1/y"], "attr": {"T": {"type": "DT_INT32"}}}, {"name": "StatefulPartitionedCall/model/lstm/while/body/_15/model/lstm/while/add", "op": "AddV2", "input": ["Func/StatefulPartitionedCall/model/lstm/while/body/_15/input/_177", "StatefulPartitionedCall/model/lstm/while/body/_15/model/lstm/while/add/y"], "attr": {"T": {"type": "DT_INT32"}}}, {"name": "StatefulPartitionedCall/model/lstm/while/body/_15/model/lstm/while/TensorArrayV2Read/TensorListGetItem", "op": "TensorListGetItem", "input": ["StatefulPartitionedCall/model/lstm/while/StatefulPartitionedCall/model/lstm/TensorArrayUnstack/TensorListFromTensor_switch/_44:1", "Func/StatefulPartitionedCall/model/lstm/while/body/_15/input/_177", "StatefulPartitionedCall/model/lstm/while/body/_15/model/lstm/while/TensorArrayV2Read/TensorListGetItem/element_shape"], "attr": {"element_dtype": {"type": "DT_FLOAT"}}}, {"name": "StatefulPartitionedCall/model/lstm/while/body/_15/model/lstm/while/lstm_cell/MatMul_1", "op": "MatMul", "input": ["StatefulPartitionedCall/model/lstm/while/StatefulPartitionedCall/model/lstm/zeros_switch/_41:1", "StatefulPartitionedCall/model/lstm/while/body/_15/model/lstm/while/lstm_cell/MatMul_1/ReadVariableOp"], "device": "/device:CPU:0", "attr": {"T": {"type": "DT_FLOAT"}, "transpose_a": {"b": false}, "transpose_b": {"b": false}}}, {"name": "Func/StatefulPartitionedCall/model/lstm/while/body/_15/output_control_node/_197", "op": "NoOp", "input": ["^StatefulPartitionedCall/model/lstm/while/body/_15/model/lstm/while/lstm_cell/BiasAdd/ReadVariableOp", "^StatefulPartitionedCall/model/lstm/while/body/_15/model/lstm/while/lstm_cell/MatMul/ReadVariableOp", "^StatefulPartitionedCall/model/lstm/while/body/_15/model/lstm/while/lstm_cell/MatMul_1/ReadVariableOp"], "attr": {"_has_manual_control_dependencies": {"b": true}}}, {"name": "StatefulPartitionedCall/model/lstm/while/body/_15/model/lstm/while/NoOp", "op": "NoOp", "input": ["^StatefulPartitionedCall/model/lstm/while/body/_15/model/lstm/while/lstm_cell/BiasAdd/ReadVariableOp", "^StatefulPartitionedCall/model/lstm/while/body/_15/model/lstm/while/lstm_cell/MatMul/ReadVariableOp", "^StatefulPartitionedCall/model/lstm/while/body/_15/model/lstm/while/lstm_cell/MatMul_1/ReadVariableOp"], "attr": {"_has_manual_control_dependencies": {"b": true}}}, {"name": "StatefulPartitionedCall/model/lstm_1/strided_slice_1", "op": "StridedSlice", "input": ["StatefulPartitionedCall/model/lstm_1/Shape_1", "StatefulPartitionedCall/model/lstm_1/strided_slice_1/stack", "StatefulPartitionedCall/model/lstm_1/strided_slice_1/stack_1", "StatefulPartitionedCall/model/lstm_1/strided_slice_1/stack_2"], "attr": {"shrink_axis_mask": {"i": "1"}, "end_mask": {"i": "0"}, "new_axis_mask": {"i": "0"}, "Index": {"type": "DT_INT32"}, "begin_mask": {"i": "0"}, "ellipsis_mask": {"i": "0"}, "_has_manual_control_dependencies": {"b": true}, "T": {"type": "DT_INT32"}}}, {"name": "StatefulPartitionedCall/model/lstm_1/Shape", "op": "Shape", "input": ["StatefulPartitionedCall/model/lstm/transpose_1"], "attr": {"T": {"type": "DT_FLOAT"}, "out_type": {"type": "DT_INT32"}}, "experimentalType": {"typeId": "TFT_PRODUCT", "args": [{"typeId": "TFT_SHAPE_TENSOR", "args": [{"typeId": "TFT_INT32"}]}]}}, {"name": "StatefulPartitionedCall/model/lstm/while/body/_15/model/lstm/while/lstm_cell/add", "op": "_FusedMatMul", "input": ["StatefulPartitionedCall/model/lstm/while/body/_15/model/lstm/while/TensorArrayV2Read/TensorListGetItem", "StatefulPartitionedCall/model/lstm/while/body/_15/model/lstm/while/lstm_cell/MatMul/ReadVariableOp", "StatefulPartitionedCall/model/lstm/while/body/_15/model/lstm/while/lstm_cell/MatMul_1"], "device": "/device:CPU:0", "attr": {"transpose_a": {"b": false}, "num_args": {"i": "1"}, "fused_ops": {"list": {"s": ["Qmlhc0FkZA=="]}}, "T": {"type": "DT_FLOAT"}, "transpose_b": {"b": false}, "epsilon": {"f": 0.0}, "leakyrelu_alpha": {"f": 0.2}}}, {"name": "StatefulPartitionedCall/model/lstm/while/next_iteration/_61", "op": "NextIteration", "input": ["StatefulPartitionedCall/model/lstm/while/StatefulPartitionedCall/model/lstm/strided_slice_1_switch/_43:1", "^Func/StatefulPartitionedCall/model/lstm/while/body/_15/output_control_node/_197", "^Func/StatefulPartitionedCall/model/lstm/while/body/_15/input_control_node/_174"], "attr": {"T": {"type": "DT_INT32"}}}, {"name": "StatefulPartitionedCall/model/lstm/while/next_iteration/_62", "op": "NextIteration", "input": ["StatefulPartitionedCall/model/lstm/while/StatefulPartitionedCall/model/lstm/TensorArrayUnstack/TensorListFromTensor_switch/_44:1", "^Func/StatefulPartitionedCall/model/lstm/while/body/_15/output_control_node/_197", "^Func/StatefulPartitionedCall/model/lstm/while/body/_15/input_control_node/_174"], "attr": {"T": {"type": "DT_VARIANT"}}}, {"name": "StatefulPartitionedCall/model/lstm/while/next_iteration/_55", "op": "NextIteration", "input": ["StatefulPartitionedCall/model/lstm/while/body/_15/model/lstm/while/add_1", "^Func/StatefulPartitionedCall/model/lstm/while/body/_15/output_control_node/_197", "^StatefulPartitionedCall/model/lstm/while/body/_15/model/lstm/while/NoOp"], "attr": {"T": {"type": "DT_INT32"}}}, {"name": "StatefulPartitionedCall/model/lstm/while/next_iteration/_56", "op": "NextIteration", "input": ["StatefulPartitionedCall/model/lstm/while/StatefulPartitionedCall/model/lstm/while/maximum_iterations_switch/_38:1", "^Func/StatefulPartitionedCall/model/lstm/while/body/_15/output_control_node/_197", "^StatefulPartitionedCall/model/lstm/while/body/_15/model/lstm/while/NoOp", "^Func/StatefulPartitionedCall/model/lstm/while/body/_15/input_control_node/_174"], "attr": {"T": {"type": "DT_INT32"}}}, {"name": "StatefulPartitionedCall/model/lstm/while/next_iteration/_57", "op": "NextIteration", "input": ["StatefulPartitionedCall/model/lstm/while/body/_15/model/lstm/while/add", "^Func/StatefulPartitionedCall/model/lstm/while/body/_15/output_control_node/_197", "^StatefulPartitionedCall/model/lstm/while/body/_15/model/lstm/while/NoOp"], "attr": {"T": {"type": "DT_INT32"}}}, {"name": "StatefulPartitionedCall/model/lstm_1/TensorArrayV2_1", "op": "TensorListReserve", "input": ["StatefulPartitionedCall/model/lstm_1/TensorArrayV2_1/element_shape", "StatefulPartitionedCall/model/lstm_1/strided_slice_1"], "attr": {"element_dtype": {"type": "DT_FLOAT"}, "shape_type": {"type": "DT_INT32"}, "_has_manual_control_dependencies": {"b": true}}, "experimentalType": {"typeId": "TFT_PRODUCT", "args": [{"typeId": "TFT_ARRAY", "args": [{"typeId": "TFT_TENSOR", "args": [{"typeId": "TFT_FLOAT"}]}]}]}}, {"name": "StatefulPartitionedCall/model/lstm_1/strided_slice", "op": "StridedSlice", "input": ["StatefulPartitionedCall/model/lstm_1/Shape", "StatefulPartitionedCall/model/lstm_1/strided_slice/stack", "StatefulPartitionedCall/model/lstm_1/strided_slice/stack_1", "StatefulPartitionedCall/model/lstm_1/strided_slice/stack_2"], "attr": {"new_axis_mask": {"i": "0"}, "Index": {"type": "DT_INT32"}, "ellipsis_mask": {"i": "0"}, "begin_mask": {"i": "0"}, "T": {"type": "DT_INT32"}, "shrink_axis_mask": {"i": "1"}, "end_mask": {"i": "0"}}}, {"name": "StatefulPartitionedCall/model/lstm/while/body/_15/model/lstm/while/lstm_cell/BiasAdd", "op": "BiasAdd", "input": ["StatefulPartitionedCall/model/lstm/while/body/_15/model/lstm/while/lstm_cell/add", "StatefulPartitionedCall/model/lstm/while/body/_15/model/lstm/while/lstm_cell/BiasAdd/ReadVariableOp"], "attr": {"T": {"type": "DT_FLOAT"}, "data_format": {"s": "TkhXQw=="}}}, {"name": "StatefulPartitionedCall/model/lstm_1/zeros_1/packed", "op": "Pack", "input": ["StatefulPartitionedCall/model/lstm_1/strided_slice", "StatefulPartitionedCall/model/lstm_1/zeros_1/packed/1"], "attr": {"N": {"i": "2"}, "axis": {"i": "0"}, "T": {"type": "DT_INT32"}}}, {"name": "StatefulPartitionedCall/model/lstm_1/zeros/packed", "op": "Pack", "input": ["StatefulPartitionedCall/model/lstm_1/strided_slice", "StatefulPartitionedCall/model/lstm_1/zeros/packed/1"], "attr": {"T": {"type": "DT_INT32"}, "N": {"i": "2"}, "axis": {"i": "0"}}}, {"name": "StatefulPartitionedCall/model/lstm/while/body/_15/model/lstm/while/lstm_cell/split", "op": "Split", "input": ["StatefulPartitionedCall/model/lstm/while/body/_15/model/lstm/while/lstm_cell/split/split_dim", "StatefulPartitionedCall/model/lstm/while/body/_15/model/lstm/while/lstm_cell/BiasAdd"], "attr": {"num_split": {"i": "4"}, "T": {"type": "DT_FLOAT"}}}, {"name": "StatefulPartitionedCall/model/lstm_1/zeros_1", "op": "Fill", "input": ["StatefulPartitionedCall/model/lstm_1/zeros_1/packed", "StatefulPartitionedCall/model/lstm_1/zeros_1/Const"], "attr": {"_has_manual_control_dependencies": {"b": true}, "index_type": {"type": "DT_INT32"}, "T": {"type": "DT_FLOAT"}}}, {"name": "StatefulPartitionedCall/model/lstm_1/zeros", "op": "Fill", "input": ["StatefulPartitionedCall/model/lstm_1/zeros/packed", "StatefulPartitionedCall/model/lstm_1/zeros/Const"], "attr": {"_has_manual_control_dependencies": {"b": true}, "T": {"type": "DT_FLOAT"}, "index_type": {"type": "DT_INT32"}}}, {"name": "StatefulPartitionedCall/model/lstm/while/body/_15/model/lstm/while/lstm_cell/Sigmoid", "op": "Sigmoid", "input": ["StatefulPartitionedCall/model/lstm/while/body/_15/model/lstm/while/lstm_cell/split"], "attr": {"T": {"type": "DT_FLOAT"}}}, {"name": "StatefulPartitionedCall/model/lstm/while/body/_15/model/lstm/while/lstm_cell/Sigmoid_1", "op": "Sigmoid", "input": ["StatefulPartitionedCall/model/lstm/while/body/_15/model/lstm/while/lstm_cell/split:1"], "attr": {"T": {"type": "DT_FLOAT"}}}, {"name": "StatefulPartitionedCall/model/lstm/while/body/_15/model/lstm/while/lstm_cell/leaky_re_lu/LeakyRelu", "op": "LeakyRelu", "input": ["StatefulPartitionedCall/model/lstm/while/body/_15/model/lstm/while/lstm_cell/split:2"], "attr": {"T": {"type": "DT_FLOAT"}, "alpha": {"f": 0.2}}}, {"name": "StatefulPartitionedCall/model/lstm/while/body/_15/model/lstm/while/lstm_cell/Sigmoid_2", "op": "Sigmoid", "input": ["StatefulPartitionedCall/model/lstm/while/body/_15/model/lstm/while/lstm_cell/split:3"], "attr": {"T": {"type": "DT_FLOAT"}}}, {"name": "StatefulPartitionedCall/model/lstm_1/while/LoopControlInputs/_76", "op": "NoOp", "input": ["^StatefulPartitionedCall/model/lstm_1/TensorArrayV2_1", "^StatefulPartitionedCall/model/lstm_1/zeros_1", "^StatefulPartitionedCall/model/lstm_1/zeros", "^StatefulPartitionedCall/model/lstm_1/TensorArrayUnstack/TensorListFromTensor"], "attr": {"_has_manual_control_dependencies": {"b": true}}}, {"name": "StatefulPartitionedCall/model/lstm/while/body/_15/model/lstm/while/lstm_cell/mul", "op": "Mul", "input": ["StatefulPartitionedCall/model/lstm/while/body/_15/model/lstm/while/lstm_cell/Sigmoid_1", "StatefulPartitionedCall/model/lstm/while/StatefulPartitionedCall/model/lstm/zeros_1_switch/_42:1"], "attr": {"T": {"type": "DT_FLOAT"}}}, {"name": "StatefulPartitionedCall/model/lstm/while/body/_15/model/lstm/while/lstm_cell/mul_1", "op": "Mul", "input": ["StatefulPartitionedCall/model/lstm/while/body/_15/model/lstm/while/lstm_cell/Sigmoid", "StatefulPartitionedCall/model/lstm/while/body/_15/model/lstm/while/lstm_cell/leaky_re_lu/LeakyRelu"], "attr": {"T": {"type": "DT_FLOAT"}}}, {"name": "StatefulPartitionedCall/model/lstm_1/while/enter/_72", "op": "Enter", "input": ["StatefulPartitionedCall/model/lstm_1/TensorArrayUnstack/TensorListFromTensor", "^StatefulPartitionedCall/model/lstm_1/while/LoopControlInputs/_76"], "attr": {"frame_name": {"s": "U3RhdGVmdWxQYXJ0aXRpb25lZENhbGwvbW9kZWwvbHN0bV8xL3doaWxl"}, "is_constant": {"b": false}, "T": {"type": "DT_VARIANT"}, "parallel_iterations": {"i": "32"}}}, {"name": "StatefulPartitionedCall/model/lstm_1/while/enter/_70", "op": "Enter", "input": ["StatefulPartitionedCall/model/lstm_1/zeros_1", "^StatefulPartitionedCall/model/lstm_1/while/LoopControlInputs/_76"], "attr": {"parallel_iterations": {"i": "32"}, "frame_name": {"s": "U3RhdGVmdWxQYXJ0aXRpb25lZENhbGwvbW9kZWwvbHN0bV8xL3doaWxl"}, "T": {"type": "DT_FLOAT"}, "is_constant": {"b": false}}}, {"name": "StatefulPartitionedCall/model/lstm_1/while/enter/_68", "op": "Enter", "input": ["StatefulPartitionedCall/model/lstm_1/TensorArrayV2_1", "^StatefulPartitionedCall/model/lstm_1/while/LoopControlInputs/_76"], "attr": {"frame_name": {"s": "U3RhdGVmdWxQYXJ0aXRpb25lZENhbGwvbW9kZWwvbHN0bV8xL3doaWxl"}, "parallel_iterations": {"i": "32"}, "is_constant": {"b": false}, "T": {"type": "DT_VARIANT"}}}, {"name": "StatefulPartitionedCall/model/lstm_1/while/enter/_71", "op": "Enter", "input": ["StatefulPartitionedCall/model/lstm_1/strided_slice_1", "^StatefulPartitionedCall/model/lstm_1/while/LoopControlInputs/_76"], "attr": {"frame_name": {"s": "U3RhdGVmdWxQYXJ0aXRpb25lZENhbGwvbW9kZWwvbHN0bV8xL3doaWxl"}, "parallel_iterations": {"i": "32"}, "is_constant": {"b": false}, "T": {"type": "DT_INT32"}}}, {"name": "StatefulPartitionedCall/model/lstm_1/while/enter/_65", "op": "Enter", "input": ["StatefulPartitionedCall/model/lstm_1/while/loop_counter", "^StatefulPartitionedCall/model/lstm_1/while/LoopControlInputs/_76"], "attr": {"is_constant": {"b": false}, "frame_name": {"s": "U3RhdGVmdWxQYXJ0aXRpb25lZENhbGwvbW9kZWwvbHN0bV8xL3doaWxl"}, "T": {"type": "DT_INT32"}, "parallel_iterations": {"i": "32"}}}, {"name": "StatefulPartitionedCall/model/lstm_1/while/enter/_66", "op": "Enter", "input": ["StatefulPartitionedCall/model/lstm_1/while/maximum_iterations", "^StatefulPartitionedCall/model/lstm_1/while/LoopControlInputs/_76"], "attr": {"T": {"type": "DT_INT32"}, "is_constant": {"b": false}, "frame_name": {"s": "U3RhdGVmdWxQYXJ0aXRpb25lZENhbGwvbW9kZWwvbHN0bV8xL3doaWxl"}, "parallel_iterations": {"i": "32"}}}, {"name": "StatefulPartitionedCall/model/lstm_1/while/enter/_69", "op": "Enter", "input": ["StatefulPartitionedCall/model/lstm_1/zeros", "^StatefulPartitionedCall/model/lstm_1/while/LoopControlInputs/_76"], "attr": {"parallel_iterations": {"i": "32"}, "frame_name": {"s": "U3RhdGVmdWxQYXJ0aXRpb25lZENhbGwvbW9kZWwvbHN0bV8xL3doaWxl"}, "T": {"type": "DT_FLOAT"}, "is_constant": {"b": false}}}, {"name": "StatefulPartitionedCall/model/lstm_1/while/enter/_67", "op": "Enter", "input": ["StatefulPartitionedCall/model/lstm_1/time", "^StatefulPartitionedCall/model/lstm_1/while/LoopControlInputs/_76"], "attr": {"is_constant": {"b": false}, "frame_name": {"s": "U3RhdGVmdWxQYXJ0aXRpb25lZENhbGwvbW9kZWwvbHN0bV8xL3doaWxl"}, "T": {"type": "DT_INT32"}, "parallel_iterations": {"i": "32"}}}, {"name": "StatefulPartitionedCall/model/lstm_1/while/enter/_73", "op": "Enter", "input": ["Func/StatefulPartitionedCall/input/_4", "^StatefulPartitionedCall/model/lstm_1/while/LoopControlInputs/_76"], "attr": {"is_constant": {"b": true}, "T": {"type": "DT_FLOAT"}, "frame_name": {"s": "U3RhdGVmdWxQYXJ0aXRpb25lZENhbGwvbW9kZWwvbHN0bV8xL3doaWxl"}, "parallel_iterations": {"i": "32"}, "_has_manual_control_dependencies": {"b": true}}}, {"name": "StatefulPartitionedCall/model/lstm_1/while/enter/_74", "op": "Enter", "input": ["Func/StatefulPartitionedCall/input/_5", "^StatefulPartitionedCall/model/lstm_1/while/LoopControlInputs/_76"], "attr": {"_has_manual_control_dependencies": {"b": true}, "parallel_iterations": {"i": "32"}, "frame_name": {"s": "U3RhdGVmdWxQYXJ0aXRpb25lZENhbGwvbW9kZWwvbHN0bV8xL3doaWxl"}, "T": {"type": "DT_FLOAT"}, "is_constant": {"b": true}}}, {"name": "StatefulPartitionedCall/model/lstm_1/while/enter/_75", "op": "Enter", "input": ["Func/StatefulPartitionedCall/input/_6", "^StatefulPartitionedCall/model/lstm_1/while/LoopControlInputs/_76"], "attr": {"parallel_iterations": {"i": "32"}, "is_constant": {"b": true}, "_has_manual_control_dependencies": {"b": true}, "frame_name": {"s": "U3RhdGVmdWxQYXJ0aXRpb25lZENhbGwvbW9kZWwvbHN0bV8xL3doaWxl"}, "T": {"type": "DT_FLOAT"}}}, {"name": "StatefulPartitionedCall/model/lstm/while/body/_15/model/lstm/while/lstm_cell/add_1", "op": "AddV2", "input": ["StatefulPartitionedCall/model/lstm/while/body/_15/model/lstm/while/lstm_cell/mul", "StatefulPartitionedCall/model/lstm/while/body/_15/model/lstm/while/lstm_cell/mul_1"], "attr": {"T": {"type": "DT_FLOAT"}}}, {"name": "StatefulPartitionedCall/model/lstm_1/while/merge/_84", "op": "Merge", "input": ["StatefulPartitionedCall/model/lstm_1/while/enter/_72", "StatefulPartitionedCall/model/lstm_1/while/next_iteration/_111"], "attr": {"N": {"i": "2"}, "T": {"type": "DT_VARIANT"}, "_has_manual_control_dependencies": {"b": true}}}, {"name": "StatefulPartitionedCall/model/lstm_1/while/merge/_82", "op": "Merge", "input": ["StatefulPartitionedCall/model/lstm_1/while/enter/_70", "StatefulPartitionedCall/model/lstm_1/while/next_iteration/_109"], "attr": {"N": {"i": "2"}, "_has_manual_control_dependencies": {"b": true}, "T": {"type": "DT_FLOAT"}}}, {"name": "StatefulPartitionedCall/model/lstm_1/while/merge/_80", "op": "Merge", "input": ["StatefulPartitionedCall/model/lstm_1/while/enter/_68", "StatefulPartitionedCall/model/lstm_1/while/next_iteration/_107"], "attr": {"N": {"i": "2"}, "_has_manual_control_dependencies": {"b": true}, "T": {"type": "DT_VARIANT"}}}, {"name": "StatefulPartitionedCall/model/lstm_1/while/merge/_83", "op": "Merge", "input": ["StatefulPartitionedCall/model/lstm_1/while/enter/_71", "StatefulPartitionedCall/model/lstm_1/while/next_iteration/_110"], "attr": {"T": {"type": "DT_INT32"}, "N": {"i": "2"}, "_has_manual_control_dependencies": {"b": true}}}, {"name": "StatefulPartitionedCall/model/lstm_1/while/merge/_77", "op": "Merge", "input": ["StatefulPartitionedCall/model/lstm_1/while/enter/_65", "StatefulPartitionedCall/model/lstm_1/while/next_iteration/_104"], "attr": {"_has_manual_control_dependencies": {"b": true}, "T": {"type": "DT_INT32"}, "N": {"i": "2"}}}, {"name": "StatefulPartitionedCall/model/lstm_1/while/merge/_78", "op": "Merge", "input": ["StatefulPartitionedCall/model/lstm_1/while/enter/_66", "StatefulPartitionedCall/model/lstm_1/while/next_iteration/_105"], "attr": {"_has_manual_control_dependencies": {"b": true}, "N": {"i": "2"}, "T": {"type": "DT_INT32"}}}, {"name": "StatefulPartitionedCall/model/lstm_1/while/merge/_81", "op": "Merge", "input": ["StatefulPartitionedCall/model/lstm_1/while/enter/_69", "StatefulPartitionedCall/model/lstm_1/while/next_iteration/_108"], "attr": {"T": {"type": "DT_FLOAT"}, "_has_manual_control_dependencies": {"b": true}, "N": {"i": "2"}}}, {"name": "StatefulPartitionedCall/model/lstm_1/while/merge/_79", "op": "Merge", "input": ["StatefulPartitionedCall/model/lstm_1/while/enter/_67", "StatefulPartitionedCall/model/lstm_1/while/next_iteration/_106"], "attr": {"T": {"type": "DT_INT32"}, "_has_manual_control_dependencies": {"b": true}, "N": {"i": "2"}}}, {"name": "StatefulPartitionedCall/model/lstm/while/body/_15/model/lstm/while/lstm_cell/leaky_re_lu/LeakyRelu_1", "op": "LeakyRelu", "input": ["StatefulPartitionedCall/model/lstm/while/body/_15/model/lstm/while/lstm_cell/add_1"], "attr": {"T": {"type": "DT_FLOAT"}, "alpha": {"f": 0.2}}}, {"name": "StatefulPartitionedCall/model/lstm/while/next_iteration/_60", "op": "NextIteration", "input": ["StatefulPartitionedCall/model/lstm/while/body/_15/model/lstm/while/lstm_cell/add_1", "^Func/StatefulPartitionedCall/model/lstm/while/body/_15/output_control_node/_197", "^StatefulPartitionedCall/model/lstm/while/body/_15/model/lstm/while/NoOp"], "attr": {"T": {"type": "DT_FLOAT"}}}, {"name": "StatefulPartitionedCall/model/lstm_1/while/cond/_63/model/lstm_1/while/Less", "op": "Less", "input": ["StatefulPartitionedCall/model/lstm_1/while/merge/_79", "StatefulPartitionedCall/model/lstm_1/while/merge/_83", "^StatefulPartitionedCall/model/lstm_1/while/merge/_84", "^StatefulPartitionedCall/model/lstm_1/while/enter/_73", "^StatefulPartitionedCall/model/lstm_1/while/enter/_74", "^StatefulPartitionedCall/model/lstm_1/while/enter/_75", "^StatefulPartitionedCall/model/lstm_1/while/merge/_77", "^StatefulPartitionedCall/model/lstm_1/while/merge/_78", "^StatefulPartitionedCall/model/lstm_1/while/merge/_80", "^StatefulPartitionedCall/model/lstm_1/while/merge/_81", "^StatefulPartitionedCall/model/lstm_1/while/merge/_82"], "attr": {"T": {"type": "DT_INT32"}}}, {"name": "StatefulPartitionedCall/model/lstm/while/body/_15/model/lstm/while/lstm_cell/mul_2", "op": "Mul", "input": ["StatefulPartitionedCall/model/lstm/while/body/_15/model/lstm/while/lstm_cell/Sigmoid_2", "StatefulPartitionedCall/model/lstm/while/body/_15/model/lstm/while/lstm_cell/leaky_re_lu/LeakyRelu_1"], "attr": {"T": {"type": "DT_FLOAT"}}}, {"name": "StatefulPartitionedCall/model/lstm_1/while/LoopCond/_85", "op": "LoopCond", "input": ["StatefulPartitionedCall/model/lstm_1/while/cond/_63/model/lstm_1/while/Less"]}, {"name": "StatefulPartitionedCall/model/lstm/while/body/_15/model/lstm/while/TensorArrayV2Write/TensorListSetItem", "op": "TensorListSetItem", "input": ["StatefulPartitionedCall/model/lstm/while/StatefulPartitionedCall/model/lstm/TensorArrayV2_1_switch/_40:1", "Func/StatefulPartitionedCall/model/lstm/while/body/_15/input/_177", "StatefulPartitionedCall/model/lstm/while/body/_15/model/lstm/while/lstm_cell/mul_2"], "attr": {"resize_if_index_out_of_bounds": {"b": false}, "element_dtype": {"type": "DT_FLOAT"}}, "experimentalType": {"typeId": "TFT_PRODUCT", "args": [{"typeId": "TFT_ARRAY", "args": [{"typeId": "TFT_TENSOR", "args": [{"typeId": "TFT_FLOAT"}]}]}]}}, {"name": "StatefulPartitionedCall/model/lstm/while/next_iteration/_59", "op": "NextIteration", "input": ["StatefulPartitionedCall/model/lstm/while/body/_15/model/lstm/while/lstm_cell/mul_2", "^Func/StatefulPartitionedCall/model/lstm/while/body/_15/output_control_node/_197", "^StatefulPartitionedCall/model/lstm/while/body/_15/model/lstm/while/NoOp"], "attr": {"T": {"type": "DT_FLOAT"}}}, {"name": "StatefulPartitionedCall/model/lstm_1/while/StatefulPartitionedCall/model/lstm_1/TensorArrayV2_1_switch/_89", "op": "Switch", "input": ["StatefulPartitionedCall/model/lstm_1/while/merge/_80", "StatefulPartitionedCall/model/lstm_1/while/LoopCond/_85"], "attr": {"T": {"type": "DT_VARIANT"}}}, {"name": "StatefulPartitionedCall/model/lstm_1/while/StatefulPartitionedCall/model/lstm_1/strided_slice_1_switch/_92", "op": "Switch", "input": ["StatefulPartitionedCall/model/lstm_1/while/merge/_83", "StatefulPartitionedCall/model/lstm_1/while/LoopCond/_85"], "attr": {"T": {"type": "DT_INT32"}, "_has_manual_control_dependencies": {"b": true}}}, {"name": "StatefulPartitionedCall/model/lstm_1/while/StatefulPartitionedCall/model/lstm_1/while/loop_counter_switch/_86", "op": "Switch", "input": ["StatefulPartitionedCall/model/lstm_1/while/merge/_77", "StatefulPartitionedCall/model/lstm_1/while/LoopCond/_85"], "attr": {"T": {"type": "DT_INT32"}}}, {"name": "StatefulPartitionedCall/model/lstm_1/while/StatefulPartitionedCall/model/lstm_1/while/maximum_iterations_switch/_87", "op": "Switch", "input": ["StatefulPartitionedCall/model/lstm_1/while/merge/_78", "StatefulPartitionedCall/model/lstm_1/while/LoopCond/_85"], "attr": {"_has_manual_control_dependencies": {"b": true}, "T": {"type": "DT_INT32"}}}, {"name": "StatefulPartitionedCall/model/lstm_1/while/StatefulPartitionedCall/model/lstm_1/zeros_1_switch/_91", "op": "Switch", "input": ["StatefulPartitionedCall/model/lstm_1/while/merge/_82", "StatefulPartitionedCall/model/lstm_1/while/LoopCond/_85"], "attr": {"T": {"type": "DT_FLOAT"}, "_has_manual_control_dependencies": {"b": true}}}, {"name": "StatefulPartitionedCall/model/lstm_1/while/StatefulPartitionedCall/model/lstm_1/time_switch/_88", "op": "Switch", "input": ["StatefulPartitionedCall/model/lstm_1/while/merge/_79", "StatefulPartitionedCall/model/lstm_1/while/LoopCond/_85"], "attr": {"T": {"type": "DT_INT32"}, "_has_manual_control_dependencies": {"b": true}}}, {"name": "StatefulPartitionedCall/model/lstm_1/while/StatefulPartitionedCall/model/lstm_1/zeros_switch/_90", "op": "Switch", "input": ["StatefulPartitionedCall/model/lstm_1/while/merge/_81", "StatefulPartitionedCall/model/lstm_1/while/LoopCond/_85"], "attr": {"T": {"type": "DT_FLOAT"}, "_has_manual_control_dependencies": {"b": true}}}, {"name": "StatefulPartitionedCall/model/lstm_1/while/StatefulPartitionedCall/model/lstm_1/TensorArrayUnstack/TensorListFromTensor_switch/_93", "op": "Switch", "input": ["StatefulPartitionedCall/model/lstm_1/while/merge/_84", "StatefulPartitionedCall/model/lstm_1/while/LoopCond/_85"], "attr": {"_has_manual_control_dependencies": {"b": true}, "T": {"type": "DT_VARIANT"}}}, {"name": "StatefulPartitionedCall/model/lstm/while/next_iteration/_58", "op": "NextIteration", "input": ["StatefulPartitionedCall/model/lstm/while/body/_15/model/lstm/while/TensorArrayV2Write/TensorListSetItem", "^Func/StatefulPartitionedCall/model/lstm/while/body/_15/output_control_node/_197", "^StatefulPartitionedCall/model/lstm/while/body/_15/model/lstm/while/NoOp"], "attr": {"T": {"type": "DT_VARIANT"}}}, {"name": "StatefulPartitionedCall/model/lstm_1/while/exit/_98", "op": "Exit", "input": ["StatefulPartitionedCall/model/lstm_1/while/StatefulPartitionedCall/model/lstm_1/TensorArrayV2_1_switch/_89"], "attr": {"T": {"type": "DT_VARIANT"}, "_has_manual_control_dependencies": {"b": true}}}, {"name": "StatefulPartitionedCall/model/lstm_1/while/exit/_101", "op": "Exit", "input": ["StatefulPartitionedCall/model/lstm_1/while/StatefulPartitionedCall/model/lstm_1/strided_slice_1_switch/_92"], "attr": {"T": {"type": "DT_INT32"}, "_has_manual_control_dependencies": {"b": true}}}, {"name": "StatefulPartitionedCall/model/lstm_1/while/exit/_95", "op": "Exit", "input": ["StatefulPartitionedCall/model/lstm_1/while/StatefulPartitionedCall/model/lstm_1/while/loop_counter_switch/_86"], "attr": {"_has_manual_control_dependencies": {"b": true}, "T": {"type": "DT_INT32"}}}, {"name": "StatefulPartitionedCall/model/lstm_1/while/loop_body_control/_94", "op": "Identity", "input": ["StatefulPartitionedCall/model/lstm_1/while/StatefulPartitionedCall/model/lstm_1/while/loop_counter_switch/_86:1"], "attr": {"_has_manual_control_dependencies": {"b": true}, "T": {"type": "DT_INT32"}}}, {"name": "StatefulPartitionedCall/model/lstm_1/while/exit/_96", "op": "Exit", "input": ["StatefulPartitionedCall/model/lstm_1/while/StatefulPartitionedCall/model/lstm_1/while/maximum_iterations_switch/_87"], "attr": {"_has_manual_control_dependencies": {"b": true}, "T": {"type": "DT_INT32"}}}, {"name": "StatefulPartitionedCall/model/lstm_1/while/exit/_100", "op": "Exit", "input": ["StatefulPartitionedCall/model/lstm_1/while/StatefulPartitionedCall/model/lstm_1/zeros_1_switch/_91"], "attr": {"_has_manual_control_dependencies": {"b": true}, "T": {"type": "DT_FLOAT"}}}, {"name": "StatefulPartitionedCall/model/lstm_1/while/exit/_97", "op": "Exit", "input": ["StatefulPartitionedCall/model/lstm_1/while/StatefulPartitionedCall/model/lstm_1/time_switch/_88"], "attr": {"T": {"type": "DT_INT32"}, "_has_manual_control_dependencies": {"b": true}}}, {"name": "StatefulPartitionedCall/model/lstm_1/while/exit/_99", "op": "Exit", "input": ["StatefulPartitionedCall/model/lstm_1/while/StatefulPartitionedCall/model/lstm_1/zeros_switch/_90"], "attr": {"_has_manual_control_dependencies": {"b": true}, "T": {"type": "DT_FLOAT"}}}, {"name": "StatefulPartitionedCall/model/lstm_1/while/exit/_102", "op": "Exit", "input": ["StatefulPartitionedCall/model/lstm_1/while/StatefulPartitionedCall/model/lstm_1/TensorArrayUnstack/TensorListFromTensor_switch/_93"], "attr": {"T": {"type": "DT_VARIANT"}, "_has_manual_control_dependencies": {"b": true}}}, {"name": "StatefulPartitionedCall/model/lstm_1/TensorArrayV2Stack/TensorListStack", "op": "TensorListStack", "input": ["StatefulPartitionedCall/model/lstm_1/while/exit/_98", "StatefulPartitionedCall/model/lstm_1/TensorArrayV2Stack/TensorListStack/element_shape"], "attr": {"element_dtype": {"type": "DT_FLOAT"}, "num_elements": {"i": "-1"}}}, {"name": "Func/StatefulPartitionedCall/model/lstm_1/while/body/_64/input_control_node/_211", "op": "NoOp", "input": ["^StatefulPartitionedCall/model/lstm_1/while/StatefulPartitionedCall/model/lstm_1/TensorArrayUnstack/TensorListFromTensor_switch/_93", "^StatefulPartitionedCall/model/lstm_1/while/StatefulPartitionedCall/model/lstm_1/TensorArrayV2_1_switch/_89", "^StatefulPartitionedCall/model/lstm_1/while/StatefulPartitionedCall/model/lstm_1/strided_slice_1_switch/_92", "^StatefulPartitionedCall/model/lstm_1/while/StatefulPartitionedCall/model/lstm_1/time_switch/_88", "^StatefulPartitionedCall/model/lstm_1/while/loop_body_control/_94", "^StatefulPartitionedCall/model/lstm_1/while/StatefulPartitionedCall/model/lstm_1/while/maximum_iterations_switch/_87", "^StatefulPartitionedCall/model/lstm_1/while/StatefulPartitionedCall/model/lstm_1/zeros_1_switch/_91", "^StatefulPartitionedCall/model/lstm_1/while/StatefulPartitionedCall/model/lstm_1/zeros_switch/_90", "^StatefulPartitionedCall/model/lstm_1/while/enter/_73", "^StatefulPartitionedCall/model/lstm_1/while/enter/_74", "^StatefulPartitionedCall/model/lstm_1/while/enter/_75"], "attr": {"_has_manual_control_dependencies": {"b": true}}}, {"name": "StatefulPartitionedCall/model/lstm_2/Shape_1", "op": "Shape", "input": ["StatefulPartitionedCall/model/lstm_1/TensorArrayV2Stack/TensorListStack"], "attr": {"T": {"type": "DT_FLOAT"}, "out_type": {"type": "DT_INT32"}}, "experimentalType": {"typeId": "TFT_PRODUCT", "args": [{"typeId": "TFT_SHAPE_TENSOR", "args": [{"typeId": "TFT_INT32"}]}]}}, {"name": "StatefulPartitionedCall/model/lstm_1/transpose_1", "op": "Transpose", "input": ["StatefulPartitionedCall/model/lstm_1/TensorArrayV2Stack/TensorListStack", "StatefulPartitionedCall/model/lstm_1/transpose_1/perm"], "attr": {"Tperm": {"type": "DT_INT32"}, "T": {"type": "DT_FLOAT"}}}, {"name": "StatefulPartitionedCall/model/lstm_2/TensorArrayUnstack/TensorListFromTensor", "op": "TensorListFromTensor", "input": ["StatefulPartitionedCall/model/lstm_1/TensorArrayV2Stack/TensorListStack", "StatefulPartitionedCall/model/lstm_2/TensorArrayUnstack/TensorListFromTensor/element_shape"], "attr": {"shape_type": {"type": "DT_INT32"}, "element_dtype": {"type": "DT_FLOAT"}}, "experimentalType": {"typeId": "TFT_PRODUCT", "args": [{"typeId": "TFT_ARRAY", "args": [{"typeId": "TFT_TENSOR", "args": [{"typeId": "TFT_FLOAT"}]}]}]}}, {"name": "StatefulPartitionedCall/model/lstm_1/while/body/_64/model/lstm_1/while/add_1/y", "op": "Const", "input": ["^Func/StatefulPartitionedCall/model/lstm_1/while/body/_64/input_control_node/_211"], "attr": {"value": {"tensor": {"dtype": "DT_INT32", "tensorShape": {}}}, "dtype": {"type": "DT_INT32"}}}, {"name": "StatefulPartitionedCall/model/lstm_1/while/body/_64/model/lstm_1/while/lstm_cell/split/split_dim", "op": "Const", "input": ["^Func/StatefulPartitionedCall/model/lstm_1/while/body/_64/input_control_node/_211"], "attr": {"dtype": {"type": "DT_INT32"}, "value": {"tensor": {"dtype": "DT_INT32", "tensorShape": {}}}}}, {"name": "StatefulPartitionedCall/model/lstm_1/while/body/_64/model/lstm_1/while/add/y", "op": "Const", "input": ["^Func/StatefulPartitionedCall/model/lstm_1/while/body/_64/input_control_node/_211"], "attr": {"value": {"tensor": {"dtype": "DT_INT32", "tensorShape": {}}}, "dtype": {"type": "DT_INT32"}}}, {"name": "Func/StatefulPartitionedCall/model/lstm_1/while/body/_64/input/_214", "op": "Identity", "input": ["StatefulPartitionedCall/model/lstm_1/while/StatefulPartitionedCall/model/lstm_1/time_switch/_88:1", "^Func/StatefulPartitionedCall/model/lstm_1/while/body/_64/input_control_node/_211"], "attr": {"T": {"type": "DT_INT32"}}}, {"name": "StatefulPartitionedCall/model/lstm_1/while/body/_64/model/lstm_1/while/TensorArrayV2Read/TensorListGetItem/element_shape", "op": "Const", "input": ["^Func/StatefulPartitionedCall/model/lstm_1/while/body/_64/input_control_node/_211"], "attr": {"dtype": {"type": "DT_INT32"}, "value": {"tensor": {"dtype": "DT_INT32", "tensorShape": {"dim": [{"size": "2"}]}}}}}, {"name": "StatefulPartitionedCall/model/lstm_1/while/body/_64/model/lstm_1/while/lstm_cell/MatMul/ReadVariableOp", "op": "Const", "input": ["^StatefulPartitionedCall/model/lstm_1/while/enter/_73", "^Func/StatefulPartitionedCall/model/lstm_1/while/body/_64/input_control_node/_211"], "attr": {"dtype": {"type": "DT_FLOAT"}, "value": {"tensor": {"dtype": "DT_FLOAT", "tensorShape": {"dim": [{"size": "32"}, {"size": "256"}]}}}}}, {"name": "StatefulPartitionedCall/model/lstm_1/while/body/_64/model/lstm_1/while/lstm_cell/MatMul_1/ReadVariableOp", "op": "Const", "input": ["^StatefulPartitionedCall/model/lstm_1/while/enter/_74", "^Func/StatefulPartitionedCall/model/lstm_1/while/body/_64/input_control_node/_211"], "attr": {"value": {"tensor": {"dtype": "DT_FLOAT", "tensorShape": {"dim": [{"size": "64"}, {"size": "256"}]}}}, "dtype": {"type": "DT_FLOAT"}}}, {"name": "StatefulPartitionedCall/model/lstm_1/while/body/_64/model/lstm_1/while/lstm_cell/BiasAdd/ReadVariableOp", "op": "Const", "input": ["^StatefulPartitionedCall/model/lstm_1/while/enter/_75", "^Func/StatefulPartitionedCall/model/lstm_1/while/body/_64/input_control_node/_211"], "attr": {"value": {"tensor": {"dtype": "DT_FLOAT", "tensorShape": {"dim": [{"size": "256"}]}}}, "dtype": {"type": "DT_FLOAT"}}}, {"name": "StatefulPartitionedCall/model/lstm_2/strided_slice_1", "op": "StridedSlice", "input": ["StatefulPartitionedCall/model/lstm_2/Shape_1", "StatefulPartitionedCall/model/lstm_2/strided_slice_1/stack", "StatefulPartitionedCall/model/lstm_2/strided_slice_1/stack_1", "StatefulPartitionedCall/model/lstm_2/strided_slice_1/stack_2"], "attr": {"new_axis_mask": {"i": "0"}, "end_mask": {"i": "0"}, "_has_manual_control_dependencies": {"b": true}, "T": {"type": "DT_INT32"}, "ellipsis_mask": {"i": "0"}, "shrink_axis_mask": {"i": "1"}, "Index": {"type": "DT_INT32"}, "begin_mask": {"i": "0"}}}, {"name": "StatefulPartitionedCall/model/lstm_2/Shape", "op": "Shape", "input": ["StatefulPartitionedCall/model/lstm_1/transpose_1"], "attr": {"T": {"type": "DT_FLOAT"}, "out_type": {"type": "DT_INT32"}}, "experimentalType": {"typeId": "TFT_PRODUCT", "args": [{"typeId": "TFT_SHAPE_TENSOR", "args": [{"typeId": "TFT_INT32"}]}]}}, {"name": "StatefulPartitionedCall/model/lstm_1/while/body/_64/model/lstm_1/while/add_1", "op": "AddV2", "input": ["StatefulPartitionedCall/model/lstm_1/while/StatefulPartitionedCall/model/lstm_1/while/loop_counter_switch/_86:1", "StatefulPartitionedCall/model/lstm_1/while/body/_64/model/lstm_1/while/add_1/y"], "attr": {"T": {"type": "DT_INT32"}}}, {"name": "StatefulPartitionedCall/model/lstm_1/while/body/_64/model/lstm_1/while/add", "op": "AddV2", "input": ["Func/StatefulPartitionedCall/model/lstm_1/while/body/_64/input/_214", "StatefulPartitionedCall/model/lstm_1/while/body/_64/model/lstm_1/while/add/y"], "attr": {"T": {"type": "DT_INT32"}}}, {"name": "StatefulPartitionedCall/model/lstm_1/while/body/_64/model/lstm_1/while/TensorArrayV2Read/TensorListGetItem", "op": "TensorListGetItem", "input": ["StatefulPartitionedCall/model/lstm_1/while/StatefulPartitionedCall/model/lstm_1/TensorArrayUnstack/TensorListFromTensor_switch/_93:1", "Func/StatefulPartitionedCall/model/lstm_1/while/body/_64/input/_214", "StatefulPartitionedCall/model/lstm_1/while/body/_64/model/lstm_1/while/TensorArrayV2Read/TensorListGetItem/element_shape"], "attr": {"element_dtype": {"type": "DT_FLOAT"}}}, {"name": "StatefulPartitionedCall/model/lstm_1/while/body/_64/model/lstm_1/while/lstm_cell/MatMul_1", "op": "MatMul", "input": ["StatefulPartitionedCall/model/lstm_1/while/StatefulPartitionedCall/model/lstm_1/zeros_switch/_90:1", "StatefulPartitionedCall/model/lstm_1/while/body/_64/model/lstm_1/while/lstm_cell/MatMul_1/ReadVariableOp"], "device": "/device:CPU:0", "attr": {"transpose_b": {"b": false}, "T": {"type": "DT_FLOAT"}, "transpose_a": {"b": false}}}, {"name": "Func/StatefulPartitionedCall/model/lstm_1/while/body/_64/output_control_node/_234", "op": "NoOp", "input": ["^StatefulPartitionedCall/model/lstm_1/while/body/_64/model/lstm_1/while/lstm_cell/BiasAdd/ReadVariableOp", "^StatefulPartitionedCall/model/lstm_1/while/body/_64/model/lstm_1/while/lstm_cell/MatMul/ReadVariableOp", "^StatefulPartitionedCall/model/lstm_1/while/body/_64/model/lstm_1/while/lstm_cell/MatMul_1/ReadVariableOp"], "attr": {"_has_manual_control_dependencies": {"b": true}}}, {"name": "StatefulPartitionedCall/model/lstm_1/while/body/_64/model/lstm_1/while/NoOp", "op": "NoOp", "input": ["^StatefulPartitionedCall/model/lstm_1/while/body/_64/model/lstm_1/while/lstm_cell/BiasAdd/ReadVariableOp", "^StatefulPartitionedCall/model/lstm_1/while/body/_64/model/lstm_1/while/lstm_cell/MatMul/ReadVariableOp", "^StatefulPartitionedCall/model/lstm_1/while/body/_64/model/lstm_1/while/lstm_cell/MatMul_1/ReadVariableOp"], "attr": {"_has_manual_control_dependencies": {"b": true}}}, {"name": "StatefulPartitionedCall/model/lstm_2/strided_slice", "op": "StridedSlice", "input": ["StatefulPartitionedCall/model/lstm_2/Shape", "StatefulPartitionedCall/model/lstm_2/strided_slice/stack", "StatefulPartitionedCall/model/lstm_2/strided_slice/stack_1", "StatefulPartitionedCall/model/lstm_2/strided_slice/stack_2"], "attr": {"new_axis_mask": {"i": "0"}, "shrink_axis_mask": {"i": "1"}, "Index": {"type": "DT_INT32"}, "end_mask": {"i": "0"}, "T": {"type": "DT_INT32"}, "ellipsis_mask": {"i": "0"}, "begin_mask": {"i": "0"}}}, {"name": "StatefulPartitionedCall/model/lstm_1/while/body/_64/model/lstm_1/while/lstm_cell/add", "op": "_FusedMatMul", "input": ["StatefulPartitionedCall/model/lstm_1/while/body/_64/model/lstm_1/while/TensorArrayV2Read/TensorListGetItem", "StatefulPartitionedCall/model/lstm_1/while/body/_64/model/lstm_1/while/lstm_cell/MatMul/ReadVariableOp", "StatefulPartitionedCall/model/lstm_1/while/body/_64/model/lstm_1/while/lstm_cell/MatMul_1"], "device": "/device:CPU:0", "attr": {"epsilon": {"f": 0.0}, "transpose_a": {"b": false}, "fused_ops": {"list": {"s": ["Qmlhc0FkZA=="]}}, "T": {"type": "DT_FLOAT"}, "leakyrelu_alpha": {"f": 0.2}, "transpose_b": {"b": false}, "num_args": {"i": "1"}}}, {"name": "StatefulPartitionedCall/model/lstm_1/while/next_iteration/_111", "op": "NextIteration", "input": ["StatefulPartitionedCall/model/lstm_1/while/StatefulPartitionedCall/model/lstm_1/TensorArrayUnstack/TensorListFromTensor_switch/_93:1", "^Func/StatefulPartitionedCall/model/lstm_1/while/body/_64/output_control_node/_234", "^Func/StatefulPartitionedCall/model/lstm_1/while/body/_64/input_control_node/_211"], "attr": {"T": {"type": "DT_VARIANT"}}}, {"name": "StatefulPartitionedCall/model/lstm_1/while/next_iteration/_110", "op": "NextIteration", "input": ["StatefulPartitionedCall/model/lstm_1/while/StatefulPartitionedCall/model/lstm_1/strided_slice_1_switch/_92:1", "^Func/StatefulPartitionedCall/model/lstm_1/while/body/_64/output_control_node/_234", "^Func/StatefulPartitionedCall/model/lstm_1/while/body/_64/input_control_node/_211"], "attr": {"T": {"type": "DT_INT32"}}}, {"name": "StatefulPartitionedCall/model/lstm_1/while/next_iteration/_104", "op": "NextIteration", "input": ["StatefulPartitionedCall/model/lstm_1/while/body/_64/model/lstm_1/while/add_1", "^Func/StatefulPartitionedCall/model/lstm_1/while/body/_64/output_control_node/_234", "^StatefulPartitionedCall/model/lstm_1/while/body/_64/model/lstm_1/while/NoOp"], "attr": {"T": {"type": "DT_INT32"}}}, {"name": "StatefulPartitionedCall/model/lstm_1/while/next_iteration/_105", "op": "NextIteration", "input": ["StatefulPartitionedCall/model/lstm_1/while/StatefulPartitionedCall/model/lstm_1/while/maximum_iterations_switch/_87:1", "^Func/StatefulPartitionedCall/model/lstm_1/while/body/_64/output_control_node/_234", "^StatefulPartitionedCall/model/lstm_1/while/body/_64/model/lstm_1/while/NoOp", "^Func/StatefulPartitionedCall/model/lstm_1/while/body/_64/input_control_node/_211"], "attr": {"T": {"type": "DT_INT32"}}}, {"name": "StatefulPartitionedCall/model/lstm_1/while/next_iteration/_106", "op": "NextIteration", "input": ["StatefulPartitionedCall/model/lstm_1/while/body/_64/model/lstm_1/while/add", "^Func/StatefulPartitionedCall/model/lstm_1/while/body/_64/output_control_node/_234", "^StatefulPartitionedCall/model/lstm_1/while/body/_64/model/lstm_1/while/NoOp"], "attr": {"T": {"type": "DT_INT32"}}}, {"name": "StatefulPartitionedCall/model/lstm_2/zeros_1/packed", "op": "Pack", "input": ["StatefulPartitionedCall/model/lstm_2/strided_slice", "StatefulPartitionedCall/model/lstm_2/zeros_1/packed/1"], "attr": {"axis": {"i": "0"}, "N": {"i": "2"}, "T": {"type": "DT_INT32"}}}, {"name": "StatefulPartitionedCall/model/lstm_2/zeros/packed", "op": "Pack", "input": ["StatefulPartitionedCall/model/lstm_2/strided_slice", "StatefulPartitionedCall/model/lstm_2/zeros/packed/1"], "attr": {"N": {"i": "2"}, "axis": {"i": "0"}, "T": {"type": "DT_INT32"}}}, {"name": "StatefulPartitionedCall/model/lstm_1/while/body/_64/model/lstm_1/while/lstm_cell/BiasAdd", "op": "BiasAdd", "input": ["StatefulPartitionedCall/model/lstm_1/while/body/_64/model/lstm_1/while/lstm_cell/add", "StatefulPartitionedCall/model/lstm_1/while/body/_64/model/lstm_1/while/lstm_cell/BiasAdd/ReadVariableOp"], "attr": {"data_format": {"s": "TkhXQw=="}, "T": {"type": "DT_FLOAT"}}}, {"name": "StatefulPartitionedCall/model/lstm_2/zeros_1", "op": "Fill", "input": ["StatefulPartitionedCall/model/lstm_2/zeros_1/packed", "StatefulPartitionedCall/model/lstm_2/zeros_1/Const"], "attr": {"T": {"type": "DT_FLOAT"}, "_has_manual_control_dependencies": {"b": true}, "index_type": {"type": "DT_INT32"}}}, {"name": "StatefulPartitionedCall/model/lstm_2/zeros", "op": "Fill", "input": ["StatefulPartitionedCall/model/lstm_2/zeros/packed", "StatefulPartitionedCall/model/lstm_2/zeros/Const"], "attr": {"index_type": {"type": "DT_INT32"}, "T": {"type": "DT_FLOAT"}}}, {"name": "StatefulPartitionedCall/model/lstm_1/while/body/_64/model/lstm_1/while/lstm_cell/split", "op": "Split", "input": ["StatefulPartitionedCall/model/lstm_1/while/body/_64/model/lstm_1/while/lstm_cell/split/split_dim", "StatefulPartitionedCall/model/lstm_1/while/body/_64/model/lstm_1/while/lstm_cell/BiasAdd"], "attr": {"T": {"type": "DT_FLOAT"}, "num_split": {"i": "4"}}}, {"name": "StatefulPartitionedCall/model/lstm_2/while/LoopControlInputs/_125", "op": "NoOp", "input": ["^StatefulPartitionedCall/model/lstm_2/strided_slice_1", "^StatefulPartitionedCall/model/lstm_2/zeros_1", "^StatefulPartitionedCall/model/lstm_2/zeros", "^StatefulPartitionedCall/model/lstm_2/TensorArrayUnstack/TensorListFromTensor", "^StatefulPartitionedCall/model/lstm_2/TensorArrayV2_1"], "attr": {"_has_manual_control_dependencies": {"b": true}}}, {"name": "StatefulPartitionedCall/model/lstm_1/while/body/_64/model/lstm_1/while/lstm_cell/Sigmoid", "op": "Sigmoid", "input": ["StatefulPartitionedCall/model/lstm_1/while/body/_64/model/lstm_1/while/lstm_cell/split"], "attr": {"T": {"type": "DT_FLOAT"}}}, {"name": "StatefulPartitionedCall/model/lstm_1/while/body/_64/model/lstm_1/while/lstm_cell/Sigmoid_1", "op": "Sigmoid", "input": ["StatefulPartitionedCall/model/lstm_1/while/body/_64/model/lstm_1/while/lstm_cell/split:1"], "attr": {"T": {"type": "DT_FLOAT"}}}, {"name": "StatefulPartitionedCall/model/lstm_1/while/body/_64/model/lstm_1/while/lstm_cell/leaky_re_lu_1/LeakyRelu", "op": "LeakyRelu", "input": ["StatefulPartitionedCall/model/lstm_1/while/body/_64/model/lstm_1/while/lstm_cell/split:2"], "attr": {"T": {"type": "DT_FLOAT"}, "alpha": {"f": 0.3}}}, {"name": "StatefulPartitionedCall/model/lstm_1/while/body/_64/model/lstm_1/while/lstm_cell/Sigmoid_2", "op": "Sigmoid", "input": ["StatefulPartitionedCall/model/lstm_1/while/body/_64/model/lstm_1/while/lstm_cell/split:3"], "attr": {"T": {"type": "DT_FLOAT"}}}, {"name": "StatefulPartitionedCall/model/lstm_2/while/enter/_120", "op": "Enter", "input": ["StatefulPartitionedCall/model/lstm_2/strided_slice_1", "^StatefulPartitionedCall/model/lstm_2/while/LoopControlInputs/_125"], "attr": {"T": {"type": "DT_INT32"}, "parallel_iterations": {"i": "32"}, "is_constant": {"b": false}, "frame_name": {"s": "U3RhdGVmdWxQYXJ0aXRpb25lZENhbGwvbW9kZWwvbHN0bV8yL3doaWxl"}}}, {"name": "StatefulPartitionedCall/model/lstm_2/while/enter/_119", "op": "Enter", "input": ["StatefulPartitionedCall/model/lstm_2/zeros_1", "^StatefulPartitionedCall/model/lstm_2/while/LoopControlInputs/_125"], "attr": {"frame_name": {"s": "U3RhdGVmdWxQYXJ0aXRpb25lZENhbGwvbW9kZWwvbHN0bV8yL3doaWxl"}, "T": {"type": "DT_FLOAT"}, "is_constant": {"b": false}, "parallel_iterations": {"i": "32"}}}, {"name": "StatefulPartitionedCall/model/lstm_2/while/enter/_117", "op": "Enter", "input": ["StatefulPartitionedCall/model/lstm_2/TensorArrayV2_1", "^StatefulPartitionedCall/model/lstm_2/while/LoopControlInputs/_125"], "attr": {"parallel_iterations": {"i": "32"}, "frame_name": {"s": "U3RhdGVmdWxQYXJ0aXRpb25lZENhbGwvbW9kZWwvbHN0bV8yL3doaWxl"}, "T": {"type": "DT_VARIANT"}, "is_constant": {"b": false}}}, {"name": "StatefulPartitionedCall/model/lstm_2/while/enter/_114", "op": "Enter", "input": ["StatefulPartitionedCall/model/lstm_2/while/loop_counter", "^StatefulPartitionedCall/model/lstm_2/while/LoopControlInputs/_125"], "attr": {"parallel_iterations": {"i": "32"}, "frame_name": {"s": "U3RhdGVmdWxQYXJ0aXRpb25lZENhbGwvbW9kZWwvbHN0bV8yL3doaWxl"}, "T": {"type": "DT_INT32"}, "is_constant": {"b": false}}}, {"name": "StatefulPartitionedCall/model/lstm_2/while/enter/_115", "op": "Enter", "input": ["StatefulPartitionedCall/model/lstm_2/while/maximum_iterations", "^StatefulPartitionedCall/model/lstm_2/while/LoopControlInputs/_125"], "attr": {"parallel_iterations": {"i": "32"}, "T": {"type": "DT_INT32"}, "is_constant": {"b": false}, "frame_name": {"s": "U3RhdGVmdWxQYXJ0aXRpb25lZENhbGwvbW9kZWwvbHN0bV8yL3doaWxl"}}}, {"name": "StatefulPartitionedCall/model/lstm_2/while/enter/_118", "op": "Enter", "input": ["StatefulPartitionedCall/model/lstm_2/zeros", "^StatefulPartitionedCall/model/lstm_2/while/LoopControlInputs/_125"], "attr": {"is_constant": {"b": false}, "parallel_iterations": {"i": "32"}, "T": {"type": "DT_FLOAT"}, "frame_name": {"s": "U3RhdGVmdWxQYXJ0aXRpb25lZENhbGwvbW9kZWwvbHN0bV8yL3doaWxl"}}}, {"name": "StatefulPartitionedCall/model/lstm_2/while/enter/_121", "op": "Enter", "input": ["StatefulPartitionedCall/model/lstm_2/TensorArrayUnstack/TensorListFromTensor", "^StatefulPartitionedCall/model/lstm_2/while/LoopControlInputs/_125"], "attr": {"T": {"type": "DT_VARIANT"}, "is_constant": {"b": false}, "parallel_iterations": {"i": "32"}, "frame_name": {"s": "U3RhdGVmdWxQYXJ0aXRpb25lZENhbGwvbW9kZWwvbHN0bV8yL3doaWxl"}}}, {"name": "StatefulPartitionedCall/model/lstm_2/while/enter/_116", "op": "Enter", "input": ["StatefulPartitionedCall/model/lstm_2/time", "^StatefulPartitionedCall/model/lstm_2/while/LoopControlInputs/_125"], "attr": {"parallel_iterations": {"i": "32"}, "is_constant": {"b": false}, "frame_name": {"s": "U3RhdGVmdWxQYXJ0aXRpb25lZENhbGwvbW9kZWwvbHN0bV8yL3doaWxl"}, "T": {"type": "DT_INT32"}}}, {"name": "StatefulPartitionedCall/model/lstm_2/while/enter/_122", "op": "Enter", "input": ["Func/StatefulPartitionedCall/input/_7", "^StatefulPartitionedCall/model/lstm_2/while/LoopControlInputs/_125"], "attr": {"is_constant": {"b": true}, "frame_name": {"s": "U3RhdGVmdWxQYXJ0aXRpb25lZENhbGwvbW9kZWwvbHN0bV8yL3doaWxl"}, "T": {"type": "DT_FLOAT"}, "_has_manual_control_dependencies": {"b": true}, "parallel_iterations": {"i": "32"}}}, {"name": "StatefulPartitionedCall/model/lstm_2/while/enter/_123", "op": "Enter", "input": ["Func/StatefulPartitionedCall/input/_8", "^StatefulPartitionedCall/model/lstm_2/while/LoopControlInputs/_125"], "attr": {"T": {"type": "DT_FLOAT"}, "frame_name": {"s": "U3RhdGVmdWxQYXJ0aXRpb25lZENhbGwvbW9kZWwvbHN0bV8yL3doaWxl"}, "_has_manual_control_dependencies": {"b": true}, "parallel_iterations": {"i": "32"}, "is_constant": {"b": true}}}, {"name": "StatefulPartitionedCall/model/lstm_2/while/enter/_124", "op": "Enter", "input": ["Func/StatefulPartitionedCall/input/_9", "^StatefulPartitionedCall/model/lstm_2/while/LoopControlInputs/_125"], "attr": {"parallel_iterations": {"i": "32"}, "is_constant": {"b": true}, "_has_manual_control_dependencies": {"b": true}, "frame_name": {"s": "U3RhdGVmdWxQYXJ0aXRpb25lZENhbGwvbW9kZWwvbHN0bV8yL3doaWxl"}, "T": {"type": "DT_FLOAT"}}}, {"name": "StatefulPartitionedCall/model/lstm_1/while/body/_64/model/lstm_1/while/lstm_cell/mul", "op": "Mul", "input": ["StatefulPartitionedCall/model/lstm_1/while/body/_64/model/lstm_1/while/lstm_cell/Sigmoid_1", "StatefulPartitionedCall/model/lstm_1/while/StatefulPartitionedCall/model/lstm_1/zeros_1_switch/_91:1"], "attr": {"T": {"type": "DT_FLOAT"}}}, {"name": "StatefulPartitionedCall/model/lstm_1/while/body/_64/model/lstm_1/while/lstm_cell/mul_1", "op": "Mul", "input": ["StatefulPartitionedCall/model/lstm_1/while/body/_64/model/lstm_1/while/lstm_cell/Sigmoid", "StatefulPartitionedCall/model/lstm_1/while/body/_64/model/lstm_1/while/lstm_cell/leaky_re_lu_1/LeakyRelu"], "attr": {"T": {"type": "DT_FLOAT"}}}, {"name": "StatefulPartitionedCall/model/lstm_2/while/merge/_132", "op": "Merge", "input": ["StatefulPartitionedCall/model/lstm_2/while/enter/_120", "StatefulPartitionedCall/model/lstm_2/while/next_iteration/_159"], "attr": {"N": {"i": "2"}, "T": {"type": "DT_INT32"}, "_has_manual_control_dependencies": {"b": true}}}, {"name": "StatefulPartitionedCall/model/lstm_2/while/merge/_131", "op": "Merge", "input": ["StatefulPartitionedCall/model/lstm_2/while/enter/_119", "StatefulPartitionedCall/model/lstm_2/while/next_iteration/_158"], "attr": {"N": {"i": "2"}, "T": {"type": "DT_FLOAT"}}}, {"name": "StatefulPartitionedCall/model/lstm_2/while/merge/_129", "op": "Merge", "input": ["StatefulPartitionedCall/model/lstm_2/while/enter/_117", "StatefulPartitionedCall/model/lstm_2/while/next_iteration/_156"], "attr": {"N": {"i": "2"}, "_has_manual_control_dependencies": {"b": true}, "T": {"type": "DT_VARIANT"}}}, {"name": "StatefulPartitionedCall/model/lstm_2/while/merge/_126", "op": "Merge", "input": ["StatefulPartitionedCall/model/lstm_2/while/enter/_114", "StatefulPartitionedCall/model/lstm_2/while/next_iteration/_153"], "attr": {"T": {"type": "DT_INT32"}, "N": {"i": "2"}}}, {"name": "StatefulPartitionedCall/model/lstm_2/while/merge/_127", "op": "Merge", "input": ["StatefulPartitionedCall/model/lstm_2/while/enter/_115", "StatefulPartitionedCall/model/lstm_2/while/next_iteration/_154"], "attr": {"N": {"i": "2"}, "T": {"type": "DT_INT32"}, "_has_manual_control_dependencies": {"b": true}}}, {"name": "StatefulPartitionedCall/model/lstm_2/while/merge/_130", "op": "Merge", "input": ["StatefulPartitionedCall/model/lstm_2/while/enter/_118", "StatefulPartitionedCall/model/lstm_2/while/next_iteration/_157"], "attr": {"_has_manual_control_dependencies": {"b": true}, "N": {"i": "2"}, "T": {"type": "DT_FLOAT"}}}, {"name": "StatefulPartitionedCall/model/lstm_2/while/merge/_133", "op": "Merge", "input": ["StatefulPartitionedCall/model/lstm_2/while/enter/_121", "StatefulPartitionedCall/model/lstm_2/while/next_iteration/_160"], "attr": {"T": {"type": "DT_VARIANT"}, "N": {"i": "2"}, "_has_manual_control_dependencies": {"b": true}}}, {"name": "StatefulPartitionedCall/model/lstm_2/while/merge/_128", "op": "Merge", "input": ["StatefulPartitionedCall/model/lstm_2/while/enter/_116", "StatefulPartitionedCall/model/lstm_2/while/next_iteration/_155"], "attr": {"T": {"type": "DT_INT32"}, "_has_manual_control_dependencies": {"b": true}, "N": {"i": "2"}}}, {"name": "StatefulPartitionedCall/model/lstm_1/while/body/_64/model/lstm_1/while/lstm_cell/add_1", "op": "AddV2", "input": ["StatefulPartitionedCall/model/lstm_1/while/body/_64/model/lstm_1/while/lstm_cell/mul", "StatefulPartitionedCall/model/lstm_1/while/body/_64/model/lstm_1/while/lstm_cell/mul_1"], "attr": {"T": {"type": "DT_FLOAT"}}}, {"name": "StatefulPartitionedCall/model/lstm_2/while/cond/_112/model/lstm_2/while/Less", "op": "Less", "input": ["StatefulPartitionedCall/model/lstm_2/while/merge/_128", "StatefulPartitionedCall/model/lstm_2/while/merge/_132", "^StatefulPartitionedCall/model/lstm_2/while/merge/_133", "^StatefulPartitionedCall/model/lstm_2/while/enter/_122", "^StatefulPartitionedCall/model/lstm_2/while/enter/_123", "^StatefulPartitionedCall/model/lstm_2/while/enter/_124", "^StatefulPartitionedCall/model/lstm_2/while/merge/_126", "^StatefulPartitionedCall/model/lstm_2/while/merge/_127", "^StatefulPartitionedCall/model/lstm_2/while/merge/_129", "^StatefulPartitionedCall/model/lstm_2/while/merge/_130", "^StatefulPartitionedCall/model/lstm_2/while/merge/_131"], "attr": {"T": {"type": "DT_INT32"}}}, {"name": "StatefulPartitionedCall/model/lstm_1/while/body/_64/model/lstm_1/while/lstm_cell/leaky_re_lu_1/LeakyRelu_1", "op": "LeakyRelu", "input": ["StatefulPartitionedCall/model/lstm_1/while/body/_64/model/lstm_1/while/lstm_cell/add_1"], "attr": {"alpha": {"f": 0.3}, "T": {"type": "DT_FLOAT"}}}, {"name": "StatefulPartitionedCall/model/lstm_1/while/next_iteration/_109", "op": "NextIteration", "input": ["StatefulPartitionedCall/model/lstm_1/while/body/_64/model/lstm_1/while/lstm_cell/add_1", "^Func/StatefulPartitionedCall/model/lstm_1/while/body/_64/output_control_node/_234", "^StatefulPartitionedCall/model/lstm_1/while/body/_64/model/lstm_1/while/NoOp"], "attr": {"T": {"type": "DT_FLOAT"}}}, {"name": "StatefulPartitionedCall/model/lstm_2/while/LoopCond/_134", "op": "LoopCond", "input": ["StatefulPartitionedCall/model/lstm_2/while/cond/_112/model/lstm_2/while/Less"]}, {"name": "StatefulPartitionedCall/model/lstm_1/while/body/_64/model/lstm_1/while/lstm_cell/mul_2", "op": "Mul", "input": ["StatefulPartitionedCall/model/lstm_1/while/body/_64/model/lstm_1/while/lstm_cell/Sigmoid_2", "StatefulPartitionedCall/model/lstm_1/while/body/_64/model/lstm_1/while/lstm_cell/leaky_re_lu_1/LeakyRelu_1"], "attr": {"T": {"type": "DT_FLOAT"}}}, {"name": "StatefulPartitionedCall/model/lstm_2/while/StatefulPartitionedCall/model/lstm_2/TensorArrayV2_1_switch/_138", "op": "Switch", "input": ["StatefulPartitionedCall/model/lstm_2/while/merge/_129", "StatefulPartitionedCall/model/lstm_2/while/LoopCond/_134"], "attr": {"T": {"type": "DT_VARIANT"}}}, {"name": "StatefulPartitionedCall/model/lstm_2/while/StatefulPartitionedCall/model/lstm_2/while/loop_counter_switch/_135", "op": "Switch", "input": ["StatefulPartitionedCall/model/lstm_2/while/merge/_126", "StatefulPartitionedCall/model/lstm_2/while/LoopCond/_134"], "attr": {"T": {"type": "DT_INT32"}}}, {"name": "StatefulPartitionedCall/model/lstm_2/while/StatefulPartitionedCall/model/lstm_2/while/maximum_iterations_switch/_136", "op": "Switch", "input": ["StatefulPartitionedCall/model/lstm_2/while/merge/_127", "StatefulPartitionedCall/model/lstm_2/while/LoopCond/_134"], "attr": {"T": {"type": "DT_INT32"}, "_has_manual_control_dependencies": {"b": true}}}, {"name": "StatefulPartitionedCall/model/lstm_2/while/StatefulPartitionedCall/model/lstm_2/zeros_1_switch/_140", "op": "Switch", "input": ["StatefulPartitionedCall/model/lstm_2/while/merge/_131", "StatefulPartitionedCall/model/lstm_2/while/LoopCond/_134"], "attr": {"T": {"type": "DT_FLOAT"}}}, {"name": "StatefulPartitionedCall/model/lstm_2/while/StatefulPartitionedCall/model/lstm_2/TensorArrayUnstack/TensorListFromTensor_switch/_142", "op": "Switch", "input": ["StatefulPartitionedCall/model/lstm_2/while/merge/_133", "StatefulPartitionedCall/model/lstm_2/while/LoopCond/_134"], "attr": {"T": {"type": "DT_VARIANT"}, "_has_manual_control_dependencies": {"b": true}}}, {"name": "StatefulPartitionedCall/model/lstm_2/while/StatefulPartitionedCall/model/lstm_2/time_switch/_137", "op": "Switch", "input": ["StatefulPartitionedCall/model/lstm_2/while/merge/_128", "StatefulPartitionedCall/model/lstm_2/while/LoopCond/_134"], "attr": {"_has_manual_control_dependencies": {"b": true}, "T": {"type": "DT_INT32"}}}, {"name": "StatefulPartitionedCall/model/lstm_2/while/StatefulPartitionedCall/model/lstm_2/zeros_switch/_139", "op": "Switch", "input": ["StatefulPartitionedCall/model/lstm_2/while/merge/_130", "StatefulPartitionedCall/model/lstm_2/while/LoopCond/_134"], "attr": {"T": {"type": "DT_FLOAT"}}}, {"name": "StatefulPartitionedCall/model/lstm_2/while/StatefulPartitionedCall/model/lstm_2/strided_slice_1_switch/_141", "op": "Switch", "input": ["StatefulPartitionedCall/model/lstm_2/while/merge/_132", "StatefulPartitionedCall/model/lstm_2/while/LoopCond/_134"], "attr": {"_has_manual_control_dependencies": {"b": true}, "T": {"type": "DT_INT32"}}}, {"name": "StatefulPartitionedCall/model/lstm_1/while/body/_64/model/lstm_1/while/TensorArrayV2Write/TensorListSetItem", "op": "TensorListSetItem", "input": ["StatefulPartitionedCall/model/lstm_1/while/StatefulPartitionedCall/model/lstm_1/TensorArrayV2_1_switch/_89:1", "Func/StatefulPartitionedCall/model/lstm_1/while/body/_64/input/_214", "StatefulPartitionedCall/model/lstm_1/while/body/_64/model/lstm_1/while/lstm_cell/mul_2"], "attr": {"resize_if_index_out_of_bounds": {"b": false}, "element_dtype": {"type": "DT_FLOAT"}}, "experimentalType": {"typeId": "TFT_PRODUCT", "args": [{"typeId": "TFT_ARRAY", "args": [{"typeId": "TFT_TENSOR", "args": [{"typeId": "TFT_FLOAT"}]}]}]}}, {"name": "StatefulPartitionedCall/model/lstm_1/while/next_iteration/_108", "op": "NextIteration", "input": ["StatefulPartitionedCall/model/lstm_1/while/body/_64/model/lstm_1/while/lstm_cell/mul_2", "^Func/StatefulPartitionedCall/model/lstm_1/while/body/_64/output_control_node/_234", "^StatefulPartitionedCall/model/lstm_1/while/body/_64/model/lstm_1/while/NoOp"], "attr": {"T": {"type": "DT_FLOAT"}}}, {"name": "StatefulPartitionedCall/model/lstm_2/while/exit/_147", "op": "Exit", "input": ["StatefulPartitionedCall/model/lstm_2/while/StatefulPartitionedCall/model/lstm_2/TensorArrayV2_1_switch/_138"], "attr": {"T": {"type": "DT_VARIANT"}, "_has_manual_control_dependencies": {"b": true}}}, {"name": "StatefulPartitionedCall/model/lstm_2/while/exit/_144", "op": "Exit", "input": ["StatefulPartitionedCall/model/lstm_2/while/StatefulPartitionedCall/model/lstm_2/while/loop_counter_switch/_135"], "attr": {"_has_manual_control_dependencies": {"b": true}, "T": {"type": "DT_INT32"}}}, {"name": "StatefulPartitionedCall/model/lstm_2/while/loop_body_control/_143", "op": "Identity", "input": ["StatefulPartitionedCall/model/lstm_2/while/StatefulPartitionedCall/model/lstm_2/while/loop_counter_switch/_135:1"], "attr": {"T": {"type": "DT_INT32"}, "_has_manual_control_dependencies": {"b": true}}}, {"name": "StatefulPartitionedCall/model/lstm_2/while/exit/_145", "op": "Exit", "input": ["StatefulPartitionedCall/model/lstm_2/while/StatefulPartitionedCall/model/lstm_2/while/maximum_iterations_switch/_136"], "attr": {"_has_manual_control_dependencies": {"b": true}, "T": {"type": "DT_INT32"}}}, {"name": "StatefulPartitionedCall/model/lstm_2/while/exit/_149", "op": "Exit", "input": ["StatefulPartitionedCall/model/lstm_2/while/StatefulPartitionedCall/model/lstm_2/zeros_1_switch/_140"], "attr": {"T": {"type": "DT_FLOAT"}, "_has_manual_control_dependencies": {"b": true}}}, {"name": "StatefulPartitionedCall/model/lstm_2/while/exit/_151", "op": "Exit", "input": ["StatefulPartitionedCall/model/lstm_2/while/StatefulPartitionedCall/model/lstm_2/TensorArrayUnstack/TensorListFromTensor_switch/_142"], "attr": {"T": {"type": "DT_VARIANT"}, "_has_manual_control_dependencies": {"b": true}}}, {"name": "StatefulPartitionedCall/model/lstm_2/while/exit/_146", "op": "Exit", "input": ["StatefulPartitionedCall/model/lstm_2/while/StatefulPartitionedCall/model/lstm_2/time_switch/_137"], "attr": {"T": {"type": "DT_INT32"}, "_has_manual_control_dependencies": {"b": true}}}, {"name": "StatefulPartitionedCall/model/lstm_2/while/exit/_148", "op": "Exit", "input": ["StatefulPartitionedCall/model/lstm_2/while/StatefulPartitionedCall/model/lstm_2/zeros_switch/_139"], "attr": {"_has_manual_control_dependencies": {"b": true}, "T": {"type": "DT_FLOAT"}}}, {"name": "StatefulPartitionedCall/model/lstm_2/while/exit/_150", "op": "Exit", "input": ["StatefulPartitionedCall/model/lstm_2/while/StatefulPartitionedCall/model/lstm_2/strided_slice_1_switch/_141"], "attr": {"_has_manual_control_dependencies": {"b": true}, "T": {"type": "DT_INT32"}}}, {"name": "StatefulPartitionedCall/model/lstm_1/while/next_iteration/_107", "op": "NextIteration", "input": ["StatefulPartitionedCall/model/lstm_1/while/body/_64/model/lstm_1/while/TensorArrayV2Write/TensorListSetItem", "^Func/StatefulPartitionedCall/model/lstm_1/while/body/_64/output_control_node/_234", "^StatefulPartitionedCall/model/lstm_1/while/body/_64/model/lstm_1/while/NoOp"], "attr": {"T": {"type": "DT_VARIANT"}}}, {"name": "StatefulPartitionedCall/model/lstm_2/TensorArrayV2Stack/TensorListStack", "op": "TensorListStack", "input": ["StatefulPartitionedCall/model/lstm_2/while/exit/_147", "StatefulPartitionedCall/model/lstm_2/TensorArrayV2Stack/TensorListStack/element_shape"], "attr": {"num_elements": {"i": "1"}, "element_dtype": {"type": "DT_FLOAT"}}}, {"name": "Func/StatefulPartitionedCall/model/lstm_2/while/body/_113/input_control_node/_248", "op": "NoOp", "input": ["^StatefulPartitionedCall/model/lstm_2/while/StatefulPartitionedCall/model/lstm_2/TensorArrayUnstack/TensorListFromTensor_switch/_142", "^StatefulPartitionedCall/model/lstm_2/while/StatefulPartitionedCall/model/lstm_2/TensorArrayV2_1_switch/_138", "^StatefulPartitionedCall/model/lstm_2/while/StatefulPartitionedCall/model/lstm_2/strided_slice_1_switch/_141", "^StatefulPartitionedCall/model/lstm_2/while/StatefulPartitionedCall/model/lstm_2/time_switch/_137", "^StatefulPartitionedCall/model/lstm_2/while/loop_body_control/_143", "^StatefulPartitionedCall/model/lstm_2/while/StatefulPartitionedCall/model/lstm_2/while/maximum_iterations_switch/_136", "^StatefulPartitionedCall/model/lstm_2/while/StatefulPartitionedCall/model/lstm_2/zeros_1_switch/_140", "^StatefulPartitionedCall/model/lstm_2/while/StatefulPartitionedCall/model/lstm_2/zeros_switch/_139", "^StatefulPartitionedCall/model/lstm_2/while/enter/_122", "^StatefulPartitionedCall/model/lstm_2/while/enter/_123", "^StatefulPartitionedCall/model/lstm_2/while/enter/_124"], "attr": {"_has_manual_control_dependencies": {"b": true}}}, {"name": "StatefulPartitionedCall/model/lstm_2/strided_slice_3", "op": "StridedSlice", "input": ["StatefulPartitionedCall/model/lstm_2/TensorArrayV2Stack/TensorListStack", "StatefulPartitionedCall/model/lstm_2/strided_slice_3/stack", "StatefulPartitionedCall/model/lstm_2/strided_slice_3/stack_1", "StatefulPartitionedCall/model/lstm_2/strided_slice_3/stack_2"], "attr": {"new_axis_mask": {"i": "0"}, "end_mask": {"i": "0"}, "T": {"type": "DT_FLOAT"}, "Index": {"type": "DT_INT32"}, "begin_mask": {"i": "0"}, "ellipsis_mask": {"i": "0"}, "shrink_axis_mask": {"i": "1"}}}, {"name": "StatefulPartitionedCall/model/lstm_2/while/body/_113/model/lstm_2/while/TensorArrayV2Write/TensorListSetItem/index", "op": "Const", "input": ["^Func/StatefulPartitionedCall/model/lstm_2/while/body/_113/input_control_node/_248"], "attr": {"dtype": {"type": "DT_INT32"}, "value": {"tensor": {"dtype": "DT_INT32", "tensorShape": {}}}}}, {"name": "StatefulPartitionedCall/model/lstm_2/while/body/_113/model/lstm_2/while/add_1/y", "op": "Const", "input": ["^Func/StatefulPartitionedCall/model/lstm_2/while/body/_113/input_control_node/_248"], "attr": {"value": {"tensor": {"dtype": "DT_INT32", "tensorShape": {}}}, "dtype": {"type": "DT_INT32"}}}, {"name": "StatefulPartitionedCall/model/lstm_2/while/body/_113/model/lstm_2/while/lstm_cell/split/split_dim", "op": "Const", "input": ["^Func/StatefulPartitionedCall/model/lstm_2/while/body/_113/input_control_node/_248"], "attr": {"value": {"tensor": {"dtype": "DT_INT32", "tensorShape": {}}}, "dtype": {"type": "DT_INT32"}}}, {"name": "StatefulPartitionedCall/model/lstm_2/while/body/_113/model/lstm_2/while/add/y", "op": "Const", "input": ["^Func/StatefulPartitionedCall/model/lstm_2/while/body/_113/input_control_node/_248"], "attr": {"dtype": {"type": "DT_INT32"}, "value": {"tensor": {"dtype": "DT_INT32", "tensorShape": {}}}}}, {"name": "StatefulPartitionedCall/model/lstm_2/while/body/_113/model/lstm_2/while/TensorArrayV2Read/TensorListGetItem/element_shape", "op": "Const", "input": ["^Func/StatefulPartitionedCall/model/lstm_2/while/body/_113/input_control_node/_248"], "attr": {"dtype": {"type": "DT_INT32"}, "value": {"tensor": {"dtype": "DT_INT32", "tensorShape": {"dim": [{"size": "2"}]}}}}}, {"name": "StatefulPartitionedCall/model/lstm_2/while/body/_113/model/lstm_2/while/lstm_cell/MatMul/ReadVariableOp", "op": "Const", "input": ["^StatefulPartitionedCall/model/lstm_2/while/enter/_122", "^Func/StatefulPartitionedCall/model/lstm_2/while/body/_113/input_control_node/_248"], "attr": {"dtype": {"type": "DT_FLOAT"}, "value": {"tensor": {"dtype": "DT_FLOAT", "tensorShape": {"dim": [{"size": "64"}, {"size": "512"}]}}}}}, {"name": "StatefulPartitionedCall/model/lstm_2/while/body/_113/model/lstm_2/while/lstm_cell/MatMul_1/ReadVariableOp", "op": "Const", "input": ["^StatefulPartitionedCall/model/lstm_2/while/enter/_123", "^Func/StatefulPartitionedCall/model/lstm_2/while/body/_113/input_control_node/_248"], "attr": {"value": {"tensor": {"dtype": "DT_FLOAT", "tensorShape": {"dim": [{"size": "128"}, {"size": "512"}]}}}, "dtype": {"type": "DT_FLOAT"}}}, {"name": "StatefulPartitionedCall/model/lstm_2/while/body/_113/model/lstm_2/while/lstm_cell/BiasAdd/ReadVariableOp", "op": "Const", "input": ["^StatefulPartitionedCall/model/lstm_2/while/enter/_124", "^Func/StatefulPartitionedCall/model/lstm_2/while/body/_113/input_control_node/_248"], "attr": {"dtype": {"type": "DT_FLOAT"}, "value": {"tensor": {"dtype": "DT_FLOAT", "tensorShape": {"dim": [{"size": "512"}]}}}}}, {"name": "StatefulPartitionedCall/model/dense/BiasAdd", "op": "_FusedMatMul", "input": ["StatefulPartitionedCall/model/lstm_2/strided_slice_3", "StatefulPartitionedCall/model/dense/MatMul/ReadVariableOp", "StatefulPartitionedCall/model/dense/BiasAdd/ReadVariableOp"], "device": "/device:CPU:0", "attr": {"epsilon": {"f": 0.0}, "fused_ops": {"list": {"s": ["Qmlhc0FkZA=="]}}, "num_args": {"i": "1"}, "T": {"type": "DT_FLOAT"}, "transpose_b": {"b": false}, "leakyrelu_alpha": {"f": 0.2}, "transpose_a": {"b": false}}}, {"name": "StatefulPartitionedCall/model/lstm_2/while/body/_113/model/lstm_2/while/add_1", "op": "AddV2", "input": ["StatefulPartitionedCall/model/lstm_2/while/StatefulPartitionedCall/model/lstm_2/while/loop_counter_switch/_135:1", "StatefulPartitionedCall/model/lstm_2/while/body/_113/model/lstm_2/while/add_1/y"], "attr": {"T": {"type": "DT_INT32"}}}, {"name": "StatefulPartitionedCall/model/lstm_2/while/body/_113/model/lstm_2/while/add", "op": "AddV2", "input": ["StatefulPartitionedCall/model/lstm_2/while/StatefulPartitionedCall/model/lstm_2/time_switch/_137:1", "StatefulPartitionedCall/model/lstm_2/while/body/_113/model/lstm_2/while/add/y"], "attr": {"T": {"type": "DT_INT32"}}}, {"name": "StatefulPartitionedCall/model/lstm_2/while/body/_113/model/lstm_2/while/TensorArrayV2Read/TensorListGetItem", "op": "TensorListGetItem", "input": ["StatefulPartitionedCall/model/lstm_2/while/StatefulPartitionedCall/model/lstm_2/TensorArrayUnstack/TensorListFromTensor_switch/_142:1", "StatefulPartitionedCall/model/lstm_2/while/StatefulPartitionedCall/model/lstm_2/time_switch/_137:1", "StatefulPartitionedCall/model/lstm_2/while/body/_113/model/lstm_2/while/TensorArrayV2Read/TensorListGetItem/element_shape"], "attr": {"element_dtype": {"type": "DT_FLOAT"}}}, {"name": "StatefulPartitionedCall/model/lstm_2/while/body/_113/model/lstm_2/while/lstm_cell/MatMul_1", "op": "MatMul", "input": ["StatefulPartitionedCall/model/lstm_2/while/StatefulPartitionedCall/model/lstm_2/zeros_switch/_139:1", "StatefulPartitionedCall/model/lstm_2/while/body/_113/model/lstm_2/while/lstm_cell/MatMul_1/ReadVariableOp"], "device": "/device:CPU:0", "attr": {"transpose_b": {"b": false}, "T": {"type": "DT_FLOAT"}, "transpose_a": {"b": false}}}, {"name": "Func/StatefulPartitionedCall/model/lstm_2/while/body/_113/output_control_node/_271", "op": "NoOp", "input": ["^StatefulPartitionedCall/model/lstm_2/while/body/_113/model/lstm_2/while/lstm_cell/BiasAdd/ReadVariableOp", "^StatefulPartitionedCall/model/lstm_2/while/body/_113/model/lstm_2/while/lstm_cell/MatMul/ReadVariableOp", "^StatefulPartitionedCall/model/lstm_2/while/body/_113/model/lstm_2/while/lstm_cell/MatMul_1/ReadVariableOp"], "attr": {"_has_manual_control_dependencies": {"b": true}}}, {"name": "StatefulPartitionedCall/model/lstm_2/while/body/_113/model/lstm_2/while/NoOp", "op": "NoOp", "input": ["^StatefulPartitionedCall/model/lstm_2/while/body/_113/model/lstm_2/while/lstm_cell/BiasAdd/ReadVariableOp", "^StatefulPartitionedCall/model/lstm_2/while/body/_113/model/lstm_2/while/lstm_cell/MatMul/ReadVariableOp", "^StatefulPartitionedCall/model/lstm_2/while/body/_113/model/lstm_2/while/lstm_cell/MatMul_1/ReadVariableOp"], "attr": {"_has_manual_control_dependencies": {"b": true}}}, {"name": "StatefulPartitionedCall/model/dense/Sigmoid", "op": "Sigmoid", "input": ["StatefulPartitionedCall/model/dense/BiasAdd"], "attr": {"T": {"type": "DT_FLOAT"}}}, {"name": "StatefulPartitionedCall/model/lstm_2/while/body/_113/model/lstm_2/while/lstm_cell/add", "op": "_FusedMatMul", "input": ["StatefulPartitionedCall/model/lstm_2/while/body/_113/model/lstm_2/while/TensorArrayV2Read/TensorListGetItem", "StatefulPartitionedCall/model/lstm_2/while/body/_113/model/lstm_2/while/lstm_cell/MatMul/ReadVariableOp", "StatefulPartitionedCall/model/lstm_2/while/body/_113/model/lstm_2/while/lstm_cell/MatMul_1"], "device": "/device:CPU:0", "attr": {"transpose_a": {"b": false}, "fused_ops": {"list": {"s": ["Qmlhc0FkZA=="]}}, "transpose_b": {"b": false}, "T": {"type": "DT_FLOAT"}, "epsilon": {"f": 0.0}, "leakyrelu_alpha": {"f": 0.2}, "num_args": {"i": "1"}}}, {"name": "StatefulPartitionedCall/model/lstm_2/while/next_iteration/_159", "op": "NextIteration", "input": ["StatefulPartitionedCall/model/lstm_2/while/StatefulPartitionedCall/model/lstm_2/strided_slice_1_switch/_141:1", "^Func/StatefulPartitionedCall/model/lstm_2/while/body/_113/output_control_node/_271", "^Func/StatefulPartitionedCall/model/lstm_2/while/body/_113/input_control_node/_248"], "attr": {"T": {"type": "DT_INT32"}}}, {"name": "StatefulPartitionedCall/model/lstm_2/while/next_iteration/_160", "op": "NextIteration", "input": ["StatefulPartitionedCall/model/lstm_2/while/StatefulPartitionedCall/model/lstm_2/TensorArrayUnstack/TensorListFromTensor_switch/_142:1", "^Func/StatefulPartitionedCall/model/lstm_2/while/body/_113/output_control_node/_271", "^Func/StatefulPartitionedCall/model/lstm_2/while/body/_113/input_control_node/_248"], "attr": {"T": {"type": "DT_VARIANT"}}}, {"name": "StatefulPartitionedCall/model/lstm_2/while/next_iteration/_153", "op": "NextIteration", "input": ["StatefulPartitionedCall/model/lstm_2/while/body/_113/model/lstm_2/while/add_1", "^Func/StatefulPartitionedCall/model/lstm_2/while/body/_113/output_control_node/_271", "^StatefulPartitionedCall/model/lstm_2/while/body/_113/model/lstm_2/while/NoOp"], "attr": {"T": {"type": "DT_INT32"}}}, {"name": "StatefulPartitionedCall/model/lstm_2/while/next_iteration/_154", "op": "NextIteration", "input": ["StatefulPartitionedCall/model/lstm_2/while/StatefulPartitionedCall/model/lstm_2/while/maximum_iterations_switch/_136:1", "^Func/StatefulPartitionedCall/model/lstm_2/while/body/_113/output_control_node/_271", "^StatefulPartitionedCall/model/lstm_2/while/body/_113/model/lstm_2/while/NoOp", "^Func/StatefulPartitionedCall/model/lstm_2/while/body/_113/input_control_node/_248"], "attr": {"T": {"type": "DT_INT32"}}}, {"name": "StatefulPartitionedCall/model/lstm_2/while/next_iteration/_155", "op": "NextIteration", "input": ["StatefulPartitionedCall/model/lstm_2/while/body/_113/model/lstm_2/while/add", "^Func/StatefulPartitionedCall/model/lstm_2/while/body/_113/output_control_node/_271", "^StatefulPartitionedCall/model/lstm_2/while/body/_113/model/lstm_2/while/NoOp"], "attr": {"T": {"type": "DT_INT32"}}}, {"name": "Identity", "op": "Identity", "input": ["StatefulPartitionedCall/model/dense/Sigmoid", "^StatefulPartitionedCall/model/lstm_2/while/exit/_151", "^StatefulPartitionedCall/model/lstm/while/exit/_52", "^StatefulPartitionedCall/model/lstm_1/while/exit/_95", "^StatefulPartitionedCall/model/lstm_1/while/exit/_96", "^StatefulPartitionedCall/model/lstm_1/while/exit/_97", "^StatefulPartitionedCall/model/lstm_1/while/exit/_98", "^StatefulPartitionedCall/model/lstm/while/exit/_46", "^StatefulPartitionedCall/model/lstm/while/exit/_53", "^StatefulPartitionedCall/model/lstm/while/exit/_47", "^StatefulPartitionedCall/model/lstm/while/exit/_48", "^StatefulPartitionedCall/model/lstm/while/exit/_49", "^StatefulPartitionedCall/model/lstm_1/while/exit/_99", "^StatefulPartitionedCall/model/lstm/while/exit/_50", "^StatefulPartitionedCall/model/lstm/while/exit/_51", "^StatefulPartitionedCall/model/lstm_2/while/exit/_144", "^StatefulPartitionedCall/model/lstm_2/while/exit/_145", "^StatefulPartitionedCall/model/lstm_2/while/exit/_146", "^StatefulPartitionedCall/model/lstm_2/while/exit/_147", "^StatefulPartitionedCall/model/lstm_2/while/exit/_148", "^StatefulPartitionedCall/model/lstm_2/while/exit/_149", "^StatefulPartitionedCall/model/lstm_2/while/exit/_150", "^StatefulPartitionedCall/model/lstm_1/while/exit/_100", "^StatefulPartitionedCall/model/lstm_1/while/exit/_101", "^StatefulPartitionedCall/model/lstm_1/while/exit/_102"], "attr": {"T": {"type": "DT_FLOAT"}}}, {"name": "StatefulPartitionedCall/model/lstm_2/while/body/_113/model/lstm_2/while/lstm_cell/BiasAdd", "op": "BiasAdd", "input": ["StatefulPartitionedCall/model/lstm_2/while/body/_113/model/lstm_2/while/lstm_cell/add", "StatefulPartitionedCall/model/lstm_2/while/body/_113/model/lstm_2/while/lstm_cell/BiasAdd/ReadVariableOp"], "attr": {"T": {"type": "DT_FLOAT"}, "data_format": {"s": "TkhXQw=="}}}, {"name": "StatefulPartitionedCall/model/lstm_2/while/body/_113/model/lstm_2/while/lstm_cell/split", "op": "Split", "input": ["StatefulPartitionedCall/model/lstm_2/while/body/_113/model/lstm_2/while/lstm_cell/split/split_dim", "StatefulPartitionedCall/model/lstm_2/while/body/_113/model/lstm_2/while/lstm_cell/BiasAdd"], "attr": {"num_split": {"i": "4"}, "T": {"type": "DT_FLOAT"}}}, {"name": "StatefulPartitionedCall/model/lstm_2/while/body/_113/model/lstm_2/while/lstm_cell/Sigmoid", "op": "Sigmoid", "input": ["StatefulPartitionedCall/model/lstm_2/while/body/_113/model/lstm_2/while/lstm_cell/split"], "attr": {"T": {"type": "DT_FLOAT"}}}, {"name": "StatefulPartitionedCall/model/lstm_2/while/body/_113/model/lstm_2/while/lstm_cell/Sigmoid_1", "op": "Sigmoid", "input": ["StatefulPartitionedCall/model/lstm_2/while/body/_113/model/lstm_2/while/lstm_cell/split:1"], "attr": {"T": {"type": "DT_FLOAT"}}}, {"name": "StatefulPartitionedCall/model/lstm_2/while/body/_113/model/lstm_2/while/lstm_cell/leaky_re_lu_2/LeakyRelu", "op": "LeakyRelu", "input": ["StatefulPartitionedCall/model/lstm_2/while/body/_113/model/lstm_2/while/lstm_cell/split:2"], "attr": {"T": {"type": "DT_FLOAT"}, "alpha": {"f": 0.3}}}, {"name": "StatefulPartitionedCall/model/lstm_2/while/body/_113/model/lstm_2/while/lstm_cell/Sigmoid_2", "op": "Sigmoid", "input": ["StatefulPartitionedCall/model/lstm_2/while/body/_113/model/lstm_2/while/lstm_cell/split:3"], "attr": {"T": {"type": "DT_FLOAT"}}}, {"name": "StatefulPartitionedCall/model/lstm_2/while/body/_113/model/lstm_2/while/lstm_cell/mul", "op": "Mul", "input": ["StatefulPartitionedCall/model/lstm_2/while/body/_113/model/lstm_2/while/lstm_cell/Sigmoid_1", "StatefulPartitionedCall/model/lstm_2/while/StatefulPartitionedCall/model/lstm_2/zeros_1_switch/_140:1"], "attr": {"T": {"type": "DT_FLOAT"}}}, {"name": "StatefulPartitionedCall/model/lstm_2/while/body/_113/model/lstm_2/while/lstm_cell/mul_1", "op": "Mul", "input": ["StatefulPartitionedCall/model/lstm_2/while/body/_113/model/lstm_2/while/lstm_cell/Sigmoid", "StatefulPartitionedCall/model/lstm_2/while/body/_113/model/lstm_2/while/lstm_cell/leaky_re_lu_2/LeakyRelu"], "attr": {"T": {"type": "DT_FLOAT"}}}, {"name": "StatefulPartitionedCall/model/lstm_2/while/body/_113/model/lstm_2/while/lstm_cell/add_1", "op": "AddV2", "input": ["StatefulPartitionedCall/model/lstm_2/while/body/_113/model/lstm_2/while/lstm_cell/mul", "StatefulPartitionedCall/model/lstm_2/while/body/_113/model/lstm_2/while/lstm_cell/mul_1"], "attr": {"T": {"type": "DT_FLOAT"}}}, {"name": "StatefulPartitionedCall/model/lstm_2/while/body/_113/model/lstm_2/while/lstm_cell/leaky_re_lu_2/LeakyRelu_1", "op": "LeakyRelu", "input": ["StatefulPartitionedCall/model/lstm_2/while/body/_113/model/lstm_2/while/lstm_cell/add_1"], "attr": {"alpha": {"f": 0.3}, "T": {"type": "DT_FLOAT"}}}, {"name": "StatefulPartitionedCall/model/lstm_2/while/next_iteration/_158", "op": "NextIteration", "input": ["StatefulPartitionedCall/model/lstm_2/while/body/_113/model/lstm_2/while/lstm_cell/add_1", "^Func/StatefulPartitionedCall/model/lstm_2/while/body/_113/output_control_node/_271", "^StatefulPartitionedCall/model/lstm_2/while/body/_113/model/lstm_2/while/NoOp"], "attr": {"T": {"type": "DT_FLOAT"}}}, {"name": "StatefulPartitionedCall/model/lstm_2/while/body/_113/model/lstm_2/while/lstm_cell/mul_2", "op": "Mul", "input": ["StatefulPartitionedCall/model/lstm_2/while/body/_113/model/lstm_2/while/lstm_cell/Sigmoid_2", "StatefulPartitionedCall/model/lstm_2/while/body/_113/model/lstm_2/while/lstm_cell/leaky_re_lu_2/LeakyRelu_1"], "attr": {"T": {"type": "DT_FLOAT"}}}, {"name": "StatefulPartitionedCall/model/lstm_2/while/body/_113/model/lstm_2/while/TensorArrayV2Write/TensorListSetItem", "op": "TensorListSetItem", "input": ["StatefulPartitionedCall/model/lstm_2/while/StatefulPartitionedCall/model/lstm_2/TensorArrayV2_1_switch/_138:1", "StatefulPartitionedCall/model/lstm_2/while/body/_113/model/lstm_2/while/TensorArrayV2Write/TensorListSetItem/index", "StatefulPartitionedCall/model/lstm_2/while/body/_113/model/lstm_2/while/lstm_cell/mul_2"], "attr": {"resize_if_index_out_of_bounds": {"b": false}, "element_dtype": {"type": "DT_FLOAT"}}, "experimentalType": {"typeId": "TFT_PRODUCT", "args": [{"typeId": "TFT_ARRAY", "args": [{"typeId": "TFT_TENSOR", "args": [{"typeId": "TFT_FLOAT"}]}]}]}}, {"name": "StatefulPartitionedCall/model/lstm_2/while/next_iteration/_157", "op": "NextIteration", "input": ["StatefulPartitionedCall/model/lstm_2/while/body/_113/model/lstm_2/while/lstm_cell/mul_2", "^Func/StatefulPartitionedCall/model/lstm_2/while/body/_113/output_control_node/_271", "^StatefulPartitionedCall/model/lstm_2/while/body/_113/model/lstm_2/while/NoOp"], "attr": {"T": {"type": "DT_FLOAT"}}}, {"name": "StatefulPartitionedCall/model/lstm_2/while/next_iteration/_156", "op": "NextIteration", "input": ["StatefulPartitionedCall/model/lstm_2/while/body/_113/model/lstm_2/while/TensorArrayV2Write/TensorListSetItem", "^Func/StatefulPartitionedCall/model/lstm_2/while/body/_113/output_control_node/_271", "^StatefulPartitionedCall/model/lstm_2/while/body/_113/model/lstm_2/while/NoOp"], "attr": {"T": {"type": "DT_VARIANT"}}}], "library": {}, "versions": {"producer": 1645}}, "weightsManifest": [{"paths": ["group1-shard1of1.bin"], "weights": [{"name": "StatefulPartitionedCall/model/lstm_2/TensorArrayV2Stack/TensorListStack/element_shape", "shape": [2], "dtype": "int32"}, {"name": "StatefulPartitionedCall/model/lstm_2/strided_slice_3/stack", "shape": [1], "dtype": "int32"}, {"name": "StatefulPartitionedCall/model/lstm_2/strided_slice_3/stack_1", "shape": [1], "dtype": "int32"}, {"name": "StatefulPartitionedCall/model/lstm_2/strided_slice_3/stack_2", "shape": [1], "dtype": "int32"}, {"name": "StatefulPartitionedCall/model/dense/MatMul/ReadVariableOp", "shape": [128, 1], "dtype": "float32"}, {"name": "StatefulPartitionedCall/model/dense/BiasAdd/ReadVariableOp", "shape": [1], "dtype": "float32"}, {"name": "StatefulPartitionedCall/model/lstm_2/while/loop_counter", "shape": [], "dtype": "int32"}, {"name": "StatefulPartitionedCall/model/lstm_2/while/maximum_iterations", "shape": [], "dtype": "int32"}, {"name": "StatefulPartitionedCall/model/lstm_2/time", "shape": [], "dtype": "int32"}, {"name": "Func/StatefulPartitionedCall/input/_7", "shape": [64, 512], "dtype": "float32"}, {"name": "Func/StatefulPartitionedCall/input/_8", "shape": [128, 512], "dtype": "float32"}, {"name": "Func/StatefulPartitionedCall/input/_9", "shape": [512], "dtype": "float32"}, {"name": "StatefulPartitionedCall/model/lstm_2/strided_slice_1/stack", "shape": [1], "dtype": "int32"}, {"name": "StatefulPartitionedCall/model/lstm_2/strided_slice_1/stack_1", "shape": [1], "dtype": "int32"}, {"name": "StatefulPartitionedCall/model/lstm_2/strided_slice_1/stack_2", "shape": [1], "dtype": "int32"}, {"name": "StatefulPartitionedCall/model/lstm_2/zeros_1/packed/1", "shape": [], "dtype": "int32"}, {"name": "StatefulPartitionedCall/model/lstm_2/zeros_1/Const", "shape": [], "dtype": "float32"}, {"name": "StatefulPartitionedCall/model/lstm_1/transpose_1/perm", "shape": [3], "dtype": "int32"}, {"name": "StatefulPartitionedCall/model/lstm_2/strided_slice/stack", "shape": [1], "dtype": "int32"}, {"name": "StatefulPartitionedCall/model/lstm_2/strided_slice/stack_1", "shape": [1], "dtype": "int32"}, {"name": "StatefulPartitionedCall/model/lstm_2/strided_slice/stack_2", "shape": [1], "dtype": "int32"}, {"name": "StatefulPartitionedCall/model/lstm_2/zeros/packed/1", "shape": [], "dtype": "int32"}, {"name": "StatefulPartitionedCall/model/lstm_2/zeros/Const", "shape": [], "dtype": "float32"}, {"name": "StatefulPartitionedCall/model/lstm_1/TensorArrayV2Stack/TensorListStack/element_shape", "shape": [2], "dtype": "int32"}, {"name": "StatefulPartitionedCall/model/lstm_2/TensorArrayUnstack/TensorListFromTensor/element_shape", "shape": [2], "dtype": "int32"}, {"name": "StatefulPartitionedCall/model/lstm_2/TensorArrayV2_1/element_shape", "shape": [2], "dtype": "int32"}, {"name": "StatefulPartitionedCall/model/lstm_2/TensorArrayV2_1/num_elements", "shape": [], "dtype": "int32"}, {"name": "StatefulPartitionedCall/model/lstm_1/while/loop_counter", "shape": [], "dtype": "int32"}, {"name": "StatefulPartitionedCall/model/lstm_1/while/maximum_iterations", "shape": [], "dtype": "int32"}, {"name": "StatefulPartitionedCall/model/lstm_1/time", "shape": [], "dtype": "int32"}, {"name": "Func/StatefulPartitionedCall/input/_4", "shape": [32, 256], "dtype": "float32"}, {"name": "Func/StatefulPartitionedCall/input/_5", "shape": [64, 256], "dtype": "float32"}, {"name": "Func/StatefulPartitionedCall/input/_6", "shape": [256], "dtype": "float32"}, {"name": "StatefulPartitionedCall/model/lstm_1/TensorArrayV2_1/element_shape", "shape": [2], "dtype": "int32"}, {"name": "StatefulPartitionedCall/model/lstm_1/strided_slice_1/stack", "shape": [1], "dtype": "int32"}, {"name": "StatefulPartitionedCall/model/lstm_1/strided_slice_1/stack_1", "shape": [1], "dtype": "int32"}, {"name": "StatefulPartitionedCall/model/lstm_1/strided_slice_1/stack_2", "shape": [1], "dtype": "int32"}, {"name": "StatefulPartitionedCall/model/lstm_1/zeros_1/packed/1", "shape": [], "dtype": "int32"}, {"name": "StatefulPartitionedCall/model/lstm_1/zeros_1/Const", "shape": [], "dtype": "float32"}, {"name": "StatefulPartitionedCall/model/lstm/transpose_1/perm", "shape": [3], "dtype": "int32"}, {"name": "StatefulPartitionedCall/model/lstm_1/strided_slice/stack", "shape": [1], "dtype": "int32"}, {"name": "StatefulPartitionedCall/model/lstm_1/strided_slice/stack_1", "shape": [1], "dtype": "int32"}, {"name": "StatefulPartitionedCall/model/lstm_1/strided_slice/stack_2", "shape": [1], "dtype": "int32"}, {"name": "StatefulPartitionedCall/model/lstm_1/zeros/packed/1", "shape": [], "dtype": "int32"}, {"name": "StatefulPartitionedCall/model/lstm_1/zeros/Const", "shape": [], "dtype": "float32"}, {"name": "StatefulPartitionedCall/model/lstm/while/loop_counter", "shape": [], "dtype": "int32"}, {"name": "StatefulPartitionedCall/model/lstm/while/maximum_iterations", "shape": [], "dtype": "int32"}, {"name": "StatefulPartitionedCall/model/lstm/time", "shape": [], "dtype": "int32"}, {"name": "Func/StatefulPartitionedCall/input/_1", "shape": [1, 128], "dtype": "float32"}, {"name": "Func/StatefulPartitionedCall/input/_2", "shape": [32, 128], "dtype": "float32"}, {"name": "Func/StatefulPartitionedCall/input/_3", "shape": [128], "dtype": "float32"}, {"name": "StatefulPartitionedCall/model/lstm/TensorArrayV2_1/element_shape", "shape": [2], "dtype": "int32"}, {"name": "StatefulPartitionedCall/model/lstm/strided_slice_1/stack", "shape": [1], "dtype": "int32"}, {"name": "StatefulPartitionedCall/model/lstm/strided_slice_1/stack_1", "shape": [1], "dtype": "int32"}, {"name": "StatefulPartitionedCall/model/lstm/strided_slice_1/stack_2", "shape": [1], "dtype": "int32"}, {"name": "StatefulPartitionedCall/model/lstm/zeros_1/packed/1", "shape": [], "dtype": "int32"}, {"name": "StatefulPartitionedCall/model/lstm/zeros_1/Const", "shape": [], "dtype": "float32"}, {"name": "StatefulPartitionedCall/model/lstm/strided_slice/stack", "shape": [1], "dtype": "int32"}, {"name": "StatefulPartitionedCall/model/lstm/strided_slice/stack_1", "shape": [1], "dtype": "int32"}, {"name": "StatefulPartitionedCall/model/lstm/strided_slice/stack_2", "shape": [1], "dtype": "int32"}, {"name": "StatefulPartitionedCall/model/lstm/zeros/packed/1", "shape": [], "dtype": "int32"}, {"name": "StatefulPartitionedCall/model/lstm/zeros/Const", "shape": [], "dtype": "float32"}, {"name": "StatefulPartitionedCall/model/lstm/transpose/perm", "shape": [3], "dtype": "int32"}, {"name": "StatefulPartitionedCall/model/lstm/TensorArrayUnstack/TensorListFromTensor/element_shape", "shape": [2], "dtype": "int32"}, {"name": "StatefulPartitionedCall/model/lstm/TensorArrayV2Stack/TensorListStack/element_shape", "shape": [2], "dtype": "int32"}, {"name": "StatefulPartitionedCall/model/lstm_1/TensorArrayUnstack/TensorListFromTensor/element_shape", "shape": [2], "dtype": "int32"}, {"name": "StatefulPartitionedCall/model/lstm/while/body/_15/model/lstm/while/add_1/y", "shape": [], "dtype": "int32"}, {"name": "StatefulPartitionedCall/model/lstm/while/body/_15/model/lstm/while/lstm_cell/split/split_dim", "shape": [], "dtype": "int32"}, {"name": "StatefulPartitionedCall/model/lstm/while/body/_15/model/lstm/while/add/y", "shape": [], "dtype": "int32"}, {"name": "StatefulPartitionedCall/model/lstm/while/body/_15/model/lstm/while/TensorArrayV2Read/TensorListGetItem/element_shape", "shape": [2], "dtype": "int32"}, {"name": "StatefulPartitionedCall/model/lstm/while/body/_15/model/lstm/while/lstm_cell/MatMul/ReadVariableOp", "shape": [1, 128], "dtype": "float32"}, {"name": "StatefulPartitionedCall/model/lstm/while/body/_15/model/lstm/while/lstm_cell/MatMul_1/ReadVariableOp", "shape": [32, 128], "dtype": "float32"}, {"name": "StatefulPartitionedCall/model/lstm/while/body/_15/model/lstm/while/lstm_cell/BiasAdd/ReadVariableOp", "shape": [128], "dtype": "float32"}, {"name": "StatefulPartitionedCall/model/lstm_1/while/body/_64/model/lstm_1/while/add_1/y", "shape": [], "dtype": "int32"}, {"name": "StatefulPartitionedCall/model/lstm_1/while/body/_64/model/lstm_1/while/lstm_cell/split/split_dim", "shape": [], "dtype": "int32"}, {"name": "StatefulPartitionedCall/model/lstm_1/while/body/_64/model/lstm_1/while/add/y", "shape": [], "dtype": "int32"}, {"name": "StatefulPartitionedCall/model/lstm_1/while/body/_64/model/lstm_1/while/TensorArrayV2Read/TensorListGetItem/element_shape", "shape": [2], "dtype": "int32"}, {"name": "StatefulPartitionedCall/model/lstm_1/while/body/_64/model/lstm_1/while/lstm_cell/MatMul/ReadVariableOp", "shape": [32, 256], "dtype": "float32"}, {"name": "StatefulPartitionedCall/model/lstm_1/while/body/_64/model/lstm_1/while/lstm_cell/MatMul_1/ReadVariableOp", "shape": [64, 256], "dtype": "float32"}, {"name": "StatefulPartitionedCall/model/lstm_1/while/body/_64/model/lstm_1/while/lstm_cell/BiasAdd/ReadVariableOp", "shape": [256], "dtype": "float32"}, {"name": "StatefulPartitionedCall/model/lstm_2/while/body/_113/model/lstm_2/while/TensorArrayV2Write/TensorListSetItem/index", "shape": [], "dtype": "int32"}, {"name": "StatefulPartitionedCall/model/lstm_2/while/body/_113/model/lstm_2/while/add_1/y", "shape": [], "dtype": "int32"}, {"name": "StatefulPartitionedCall/model/lstm_2/while/body/_113/model/lstm_2/while/lstm_cell/split/split_dim", "shape": [], "dtype": "int32"}, {"name": "StatefulPartitionedCall/model/lstm_2/while/body/_113/model/lstm_2/while/add/y", "shape": [], "dtype": "int32"}, {"name": "StatefulPartitionedCall/model/lstm_2/while/body/_113/model/lstm_2/while/TensorArrayV2Read/TensorListGetItem/element_shape", "shape": [2], "dtype": "int32"}, {"name": "StatefulPartitionedCall/model/lstm_2/while/body/_113/model/lstm_2/while/lstm_cell/MatMul/ReadVariableOp", "shape": [64, 512], "dtype": "float32"}, {"name": "StatefulPartitionedCall/model/lstm_2/while/body/_113/model/lstm_2/while/lstm_cell/MatMul_1/ReadVariableOp", "shape": [128, 512], "dtype": "float32"}, {"name": "StatefulPartitionedCall/model/lstm_2/while/body/_113/model/lstm_2/while/lstm_cell/BiasAdd/ReadVariableOp", "shape": [512], "dtype": "float32"}]}]}